dqn.pth (torch, 22752 bytes, 6 tensors)

net.0.weight f4 [64, 11]
00000000: e084 553f 65cb 653e 2aba b0bf 6569 d3bd
00000010: ac72 1d3f a457 bb3e 5e80 26be f19e 4f3f
00000020: 2a34 e93d 2d70 1dbd ff24 ab3e c96e 1abe
00000030: d3ac cabd c7e2 8ebf ac00 9b3e c5ed 703d
00000040: 6e67 443e a87f 063f 5fe4 3bbe 443b acbe
00000050: 7c7e acbe 11de 20be 287c 843f 4036 6b3e
00000060: 5351 493e a87c 71bc 6fe2 e63d 54f0 28bf
00000070: 943f 1c3f a80d 343e 91a2 813c d199 443f
00000080: 7fa1 20bf 4ab6 2cbf 1d2a b93e 976a 263d
00000090: 9559 363f ce6d 97be b9d8 babe f480 1bbf
000000a0: 1f71 2dbf 2568 c2be 0af1 303e 10a7 943e
000000b0: 8995 1bbe a533 5a3f f478 85bf e82a 6c3d
000000c0: da39 85be 9c85 efbd 0581 703e 9fa5 973e
000000d0: 9924 dd3e bb09 fd3e 01d7 0a3f 0cae 16be
000000e0: ea71 713e 7f4f 1ebf 932a 3f3f 55b0 103d
000000f0: cd9a 07bf 136e 1fbf e5c4 19bf 9e4f aebf
00000100: b084 133f e57f 04bf cb78 d8be 8c07 be3e
00000110: 1509 1abe 47b6 fabe d0a6 ebbe 1f85 bdbe
00000120: 2ccc 983d 9d65 3f3e fd34 54bf cd28 01bf
00000130: 1525 dcbe 8f45 1c3f de69 2e3f ada9 92be
00000140: 86cd 3dbd aaec 8d3e 4a0a 9fbe 6a23 02bf
00000150: d178 85be 1669 34bc e01d e53d 7d4e 263f
00000160: 9239 a9be 40b2 b7be b94f 063f b570 12bf
00000170: 653b 46be 9197 673e d221 e13e 0c5e 6abf
00000180: 7531 afbe 3bb2 c7be 47dd 9bbe 0cd4 6abc
00000190: 7eb3 373e 046e e2bd d58a 103f 761e c23e
000001a0: bce9 76bf c76d f8be 4512 ba3e 67a9 b6be
000001b0: 8d4c 8bbf 1462 48bf 76f2 3a3e 2b64 fd3e
000001c0: 9660 2fbf 412e 68bf 019e febc a532 823e
000001d0: 79c5 b4bd 3722 453e 0316 433e f95c c1be
000001e0: 6bf9 04bf ce65 a2bc 09a7 58be e608 cc3d
000001f0: 5cf1 9d3e 314f 8fbf 8a86 b33e 8c93 07bf
00000200: 0fd0 253f e069 27bf 5729 e53e bed1 70bf
00000210: 3a39 b2bd 6597 95be a623 58be 2c24 72bf
00000220: f8ee 703e aa14 70bf d90b 893e f716 e13d
00000230: 8d39 6cbf 757a 253e 3ab9 a4bf 0d56 233d
00000240: 0abd 413e de4b 76bd 5580 1dbf 6f1f 883e
00000250: dceb c43e 412b 2abe f98b 7b3f f86d 003e
00000260: fd6a e6bd 3141 413f 11b7 0abc fde3 863e
00000270: 4e79 913d ff7c e6be 7a05 ddbe 48e9 5ebd
00000280: 6ebd 1d3f 32b2 1a3d b084 a23e 316b 7dbe
00000290: 3949 36bf a13a aebe f206 2fbe 42b6 d3be
000002a0: cc97 41bf 667a 173f e72e 183b c40e 21bf
000002b0: 7443 2fbe a9e7 d63e 7f02 efbe 6b7a 73bf
000002c0: 0d17 c1bd e03f ccbe af11 213e 7049 2abf
000002d0: 6d6f 853e c12c afbf 64af f83e f814 61bf
000002e0: b05b 153f 01a5 95bf 6bd4 8a3d 548b d33c
000002f0: 34ec c7bf b1d4 4bbe 08ed 343f c18c 4fbf
00000300: f6fc 94bf ac28 cc3e b244 913e e475 8bbf
00000310: cbbe cebf f31c 7dbf 9335 1c3f aac5 3b3f
00000320: c3b2 5c3f b378 95be 40df 14bf 9589 35bf
00000330: 2097 1bbe 1976 dbbe 333b 10be fd0f 51bd
00000340: e04e dcbe 15f4 163f efc9 953e 03e5 053f
00000350: 0f21 34be b2f3 00be c1a9 08bb ac39 7dbe
00000360: a27a 363f 99e2 1b3f 9292 573f a01f 663f
00000370: 84b5 253e 3ed0 5ebf ec43 c73c 710d 49bf
00000380: 37a7 55bf 9ddd f3bc 3a5a 033f c34e 19bf
00000390: 69ab 313f 64ea b1bf 90d4 24bf 3eca 5c3f
000003a0: 4034 8b3e bda8 8f3d 3151 39bf 763a 783f
000003b0: 5c6c 12bf c4cf c03d a956 363f c181 87bf
000003c0: f519 033f 587c 6cbd d573 1d3d e091 6a3e
000003d0: dc3c 9c3e d490 1abf ddaa 8fbf 42b7 ac3e
000003e0: 0c41 a73e 965b dd3e 91df 5f3f 9215 40bf
000003f0: 7474 b0bf 5ae3 8d3f cb59 113e 4254 773b
0.83405876 0.2244087 -1.3806813 -0.10322837 0.615031 0.36590302 -0.16259906 0.811019
0.11386903 -0.038437057 0.33426663 -0.15081324 -0.09896245 -1.1162957 0.3027395 0.058820505
0.1918008 0.5253854 -0.18348835 -0.33638966 -0.3369025 -0.15709712 1.035039 0.22969913
0.19659929 -0.014739193 0.112736575 -0.6599171 0.6103451 0.17583334 0.015824588 0.76797205
-0.62746423 -0.6746565 0.36164942 0.040628996 0.7123044 -0.29575962 -0.3649347 -0.6074364
-0.67750734 -0.3797008 0.17279449 0.2903371 -0.15193762 0.85235053 -1.0427537 0.057658106
-0.260207 -0.11695406 0.23486717 0.29618546 0.43191984 0.49421486 0.5423432 -0.14714831
0.23578611 -0.6184005 0.7467434 0.035324413 -0.5297058 -0.62277335 -0.6006606 -1.3618047
0.5762434 -0.5175765 -0.42279658 0.37115133 -0.15042527 -0.48967192 -0.46025705 -0.37015626
0.07460818 0.18691106 -0.82893354 -0.5045288 -0.4299704 0.6104364 0.6813029 -0.28645077
-0.04633858 0.27719623 -0.31062537 -0.5083529 -0.26068738 -0.011011383 0.11187339 0.64963514
-0.33051735 -0.3587818 0.524654 -0.5720323 -0.19358595 0.22616412 0.43971115 -0.91549754
-0.3421742 -0.39003167 -0.3044226 -0.0143327825 0.17939565 -0.1105614 0.5646184 0.37913865
-0.964504 -0.48521253 0.36342064 -0.3567612 -1.0882736 -0.78274655 0.18256554 0.49490485
-0.68506753 -0.9069558 -0.031081202 0.25429264 -0.088267274 0.19251333 0.19051366 -0.37766245
-0.5194308 -0.019823935 -0.21157469 0.09962635 0.30848205 -1.1196042 0.35063583 -0.52959514
0.647706 -0.6539593 0.44758102 -0.9407004 -0.08702321 -0.29217067 -0.21107349 -0.94586444
0.2352866 -0.9378153 0.26766852 0.10990708 -0.92275316 0.16159995 -1.2869027 0.039876986
0.18919769 -0.060130946 -0.61523944 0.26586482 0.38461196 -0.16618063 0.98260456 0.1254195
-0.11250875 0.754901 -0.008466498 0.26345816 0.07103215 -0.4501724 -0.4316824 -0.054421693
0.6161717 0.037767597 0.31741858 -0.24747922 -0.7120548 -0.34029105 -0.17092493 -0.4134999
-0.7562225 0.5917114 0.0023221315 -0.62913156 -0.17115575 0.41973618 -0.46681592 -0.9510867
-0.09428225 -0.39892483 0.15729402 -0.66518307 0.26061574 -1.3685533 0.48571312 -0.8792262
0.5834303 -1.169098 0.06778797 0.025823273 -1.5618958 -0.19905354 0.7067418 -0.8107415
-1.1639698 0.3987478 0.28372723 -1.0895352 -1.6151975 -0.988723 0.6101925 0.73348486
0.8621027 -0.2919365 -0.5815315 -0.7091306 -0.15194368 -0.4286354 -0.14085083 -0.05104064
-0.43028927 0.5896619 0.29255626 0.5230257 -0.17590736 -0.12592962 -0.0020853134 -0.24729031
0.7128087 0.60892636 0.84208024 0.89892006 0.16182524 -0.870365 0.02432438 -0.78536135
-0.83458275 -0.02976876 0.5130955 -0.59885806 0.69402176 -1.3899655 -0.64386845 0.862461
0.271883 0.07014606 -0.72389513 0.96964204 -0.57196593 0.09414628 0.7122598 -1.0586473
0.5121148 -0.05773577 0.038440544 0.2290721 0.30515182 -0.6037724 -1.1224018 0.33733565
0.32666814 0.43233937 0.8745051 -0.75032914 -1.3785539 1.1085007 0.1419441 0.003773943

net.0.bias f4 [64]
00000000: 6855 1fbf 3b2c b83f 3404 eebe 99ed 75be
00000010: 1fea 7fbe 7c26 5bbe 589b 8abe 0f52 0dbf
00000020: 2d79 1d3f f260 dd3e ca10 83be d846 c83e
00000030: 5f03 3c3f 8e38 2abf c0a8 c5be c113 5f3e
00000040: 808c 0e3f f3b7 5d3f ca32 d2be 5901 58bf
00000050: 4450 abbd 2c69 48be 314e 0e3d 35b5 2fbf
00000060: 8672 203e 7eb6 f0be c956 7bbf 9d83 03bf
00000070: df87 6a3d 5954 123e b4f0 3ebe b805 123e
00000080: 454a 34be 4af4 acbc 56a1 dfbe 88ed adbe
00000090: 5309 e0be 953f 823d 1746 493d dd9e 29be
000000a0: e989 abbe 2273 ad3b 338f 3cbe 5004 d7be
000000b0: 2e9f d1be 492a ce3e 6a4e 603c 78aa 6839
000000c0: f51c bfbd 00d1 8f3f cfa6 2abe 42e1 53be
000000d0: 76e3 2d3f d338 7abe fd98 673c 0f65 b83e
000000e0: b891 a3be 43e0 613e ea6d 083d 216d 7bbe
000000f0: a371 25be d56b 3c3e f2f5 73bf 875a 1f3f
-0.62239695 1.4388498 -0.46487582 -0.24016418 -0.24991654 -0.214014 -0.27071643 -0.55203336
0.61513025 0.43238026 -0.25598747 0.3911655 0.73442644 -0.66492546 -0.3860531 0.2178488
0.55683136 0.8660881 -0.41054374 -0.84377056 -0.08364919 -0.1957137 0.034742538 -0.68635875
0.15668687 -0.4701423 -0.981793 -0.513727 0.057258483 0.14289989 -0.18646508 0.14259994
-0.17606457 -0.02111258 -0.43677777 -0.33970284 -0.43757114 0.063597836 0.04913911 -0.16564508
-0.33503655 0.005293266 -0.18414001 -0.41995478 -0.40941757 0.40266636 0.01369057 0.00022188749
-0.09331695 1.1235657 -0.16665195 -0.20691398 0.679252 -0.24435739 0.014135596 0.36014602
-0.31947112 0.22058205 0.033307947 -0.24553348 -0.1615663 0.1840051 -0.9529716 0.6224751

net.2.weight f4 [64, 64]
00000000: 9537 f1bd 0882 96bd 4f71 8e3b c50a 2fbe
00000010: 54b6 96be ed37 9e3d eb5f f0bd a135 8ebe
00000020: 1b95 03be c3a9 9ebd d147 33bd 1045 4d3d
00000030: d880 8cbd bdfc 2a3e 549b c4bd 238e 30bd
00000040: 3881 ba3d 8664 9f3d 9ce6 c5bd d546 59bd
00000050: 55e5 bbbd b222 47bc 20bd a03c f143 39be
00000060: 40b4 1dbe 2339 68be b15b 7bbe bcd1 c1bd
00000070: 5dc5 6ebe d43a bdbd 22b7 003d fe91 56bd
00000080: 73fa 93be 5387 963d e2c9 bcbe a968 92be
00000090: 5f7f 9d3d 2ff0 f5bd 60a6 1abe 347b 32be
000000a0: 1ca0 42bd c04c 5bbd f5ac ecbc b75b c63d
000000b0: e161 1abc fd9b 19be 69e2 9fbd f53b c83d
000000c0: 7ec0 b6bd 8811 77bd 1996 19be 0eff 1dbe
000000d0: 85fe 94bd 2e0c 4ebc 6ddf 8fbd 7e53 583d
000000e0: de12 9ebd 3e94 60be 99dd b7bd 2325 3fbe
000000f0: 4f91 303d 92ed abbc 7344 32bd 1f10 52be
00000100: 8120 423e e320 8dbe def7 063e 6c23 e63d
00000110: a5a7 e6bd 110f 75be edee 6dbf 9620 1bbe
00000120: 578d 4fbe 04b0 0abe 68e3 0b3e 3383 2fbd
00000130: 8947 0cbc c674 3ebe d3ac 873d 15cf 85bc
00000140: 0ff5 cbbe 0100 f8be da40 a4be d848 cdbe
00000150: 175c 0a3e 16b7 343e 9b4b 143e 0065 753e
00000160: 9a4d 183e 5a03 06be a1db 1a3e c60b bebe
00000170: d5a3 92bb 3548 44bd 008a b63e 0dc4 17bf
00000180: 44de 1bbe f526 343e 4c18 d03c e021 9abd
00000190: 702e 72bf f1f3 003f 7942 cdbe f281 ed3d
000001a0: a118 fd3e 3b42 b83c 8263 80bd 2281 52bf
000001b0: 44c5 84bf 4485 2cbe c250 15bf 0a47 8bbf
000001c0: 5b51 833d fccd 0bbf 7b52 59bf bd9d 35be
000001d0: 8b3e 10bf 959d 29be 61b7 90be 0ee7 57bf
000001e0: 1fdd 88bf 6965 ae3c 08f3 01bd 537f 08be
000001f0: 7f90 aabc 2d09 1cbf f56c 5ebf 10fc 8cbe
00000200: 39c1 62be 5234 e5bd 7557 c83d 55c3 11be
00000210: cc6b 65bd b7d3 dd3c 195e 5fbe 66c1 7abe
00000220: 8485 1ebd 400c d0bd 0c8c 1a3d defe 57bd
00000230: d278 01be 0c2b a13d c165 2dbe e732 a73c
00000240: e7ef d7bd b99e fa3d d2a9 50be 5573 ffbd
00000250: 444f 683c 00c4 c0bd 116a 25be 4080 bdbd
00000260: b7ff 353c 8cf4 75be e7c1 38be b998 51bd
00000270: 2a03 98bd 676f 0ebd 1237 b2bd 902c 22bd
00000280: fd7f 233d 6616 f63d c6be 65bd a930 c7bd
00000290: 7290 c6bd 5451 313d 5f3c 0c3e 9edc fbbd
000002a0: 2ac6 aabd 9058 d9bd 2494 8e3c faa0 64bd
000002b0: 1c0a 82bd e25b 41bc 557d bb3d e110 73bd
000002c0: d2d5 52be 0aef 2dbd c037 b0bd 3378 b9bc
000002d0: 7821 273d a8dd cabb cc98 eb3d 7818 c43b
000002e0: e559 1fbd d304 e93c f026 20be 7142 81be
000002f0: 2ce2 1bbe a3fa 39be 840a 51be 704e 413a
00000300: 04ea 0fbe 5f20 24bd d6b1 f8bc 93c4 d63b
00000310: 2619 5b3d 3c7e 35bd a076 a2bd 441c 473d
00000320: def9 f6bd 45ae 9b3b 85ba 953d 31df 16bb
00000330: 6686 0cbe 6069 13be 2cc7 7d3c ee5a dbbd
00000340: b94d a03b 9189 37bc cac9 07be 0f44 8d3b
00000350: b86f f8bd fab6 46bd b0db 1bbe ad71 0bbe
00000360: 8850 f3bd bb35 f3bd 071c 49be ba50 09bd
00000370: 4bd4 babc 3079 bdbc 47be 70bd 4fa6 713d
00000380: f710 7d3d a0a9 acbc b881 6abd 4c83 17be
00000390: cba3 c4ba b9b4 e43d c852 873c 22db febd
000003a0: 2e9c e9bc 1f45 35bd 77ae 21be 4dbe 25bd
000003b0: b5d2 d6bd c414 85be 6868 06be c5e5 59be
000003c0: ded7 6cbc dcd5 4cbc 270c 03be 074a 30bd
000003d0: 3126 e8bc 698d 0cbe edf5 fd3b 6f94 8ebc
000003e0: 3395 afbc 8cd7 a2bd ab35 d9bd aa8b 1abc
000003f0: d6bd 0b3d 5e5e afbd cd58 96bd e7d6 bfbc
-0.117781796 -0.0734902 0.0043470035 -0.17093952 -0.2943598 0.07725511 -0.11737045 -0.2777529
-0.12849848 -0.07747223 -0.04376966 0.05011469 -0.068605125 0.16697975 -0.09599939 -0.043104302
0.09106678 0.07782845 -0.09663126 -0.053046066 -0.09174601 -0.012154268 0.019621432 -0.18092324
-0.15400791 -0.22678046 -0.24546696 -0.09463832 -0.23317476 -0.09239736 0.03142465 -0.052385323
-0.28902015 0.0735003 -0.36872774 -0.28595474 0.0769031 -0.12008702 -0.1510253 -0.17429811
-0.047515973 -0.05353999 -0.028891066 0.09685462 -0.00942275 -0.15000911 -0.07806856 0.09777061
-0.08923434 -0.060319453 -0.14998664 -0.15429327 -0.07275108 -0.012576146 -0.07025037 0.052814
-0.077184424 -0.2193155 -0.08977813 -0.1866651 0.043107327 -0.020987306 -0.04352231 -0.20513962
0.18957712 -0.27564153 0.13180491 0.11237225 -0.112624444 -0.23931529 -0.92942697 -0.1514915
-0.2026876 -0.13543707 0.13660967 -0.04284973 -0.008561977 -0.18599233 0.066247605 -0.016334096
-0.39835402 -0.48437503 -0.32080728 -0.40094638 0.13511692 0.17647967 0.14481966 0.2396431
0.14873353 -0.13087216 0.15122844 -0.37118357 -0.0044750967 -0.047920424 0.3565216 -0.59283525
-0.15221506 0.17592986 0.02540221 -0.075259924 -0.9460211 0.50372225 -0.40089777 0.11597051
0.49432853 0.022492519 -0.062689796 -0.8222829 -1.0372701 -0.16847712 -0.5832635 -1.0881054
0.06412002 -0.5461118 -0.8489148 -0.17735954 -0.56345433 -0.16564019 -0.28264907 -0.84336936
-1.0692481 0.02128859 -0.031725913 -0.1332982 -0.020820854 -0.609515 -0.86885005 -0.27536058
-0.22144021 -0.1119162 0.09782306 -0.1423467 -0.056011006 0.027078493 -0.21813239 -0.24487838
-0.03870155 -0.101585865 0.037731215 -0.052733295 -0.12643746 0.07869539 -0.16933347 0.020410014
-0.105438046 0.12237305 -0.20377281 -0.1247317 0.014179055 -0.09412384 -0.16153742 -0.09252977
0.01110833 -0.24019068 -0.18042718 -0.05117104 -0.074224785 -0.03477421 -0.0870191 -0.03959328
0.03991698 0.12015991 -0.05609014 -0.09726078 -0.096955195 0.04329045 0.13694905 -0.12297939
-0.08338578 -0.10612595 0.017404623 -0.05581758 -0.063495845 -0.011801692 0.091547646 -0.05934227
-0.20589378 -0.042464294 -0.086043835 -0.022640323 0.040803403 -0.0061909743 0.11503753 0.005984362
-0.03890409 0.028444683 -0.15639853 -0.25246003 -0.15222996 -0.18162017 -0.20414168 0.0007374054
-0.14054114 -0.040069934 -0.030358236 0.006554195 0.05349078 -0.04430984 -0.07932782 0.04861094
-0.12059377 0.004750999 0.073109664 -0.0023021216 -0.13723144 -0.14395666 0.015489381 -0.10710703
0.0048920778 -0.011202232 -0.1326057 0.0043110917 -0.12130684 -0.048514344 -0.15220523 -0.13617583
-0.118805945 -0.11875483 -0.19639598 -0.033524252 -0.022806307 -0.023129076 -0.058775213 0.058996495
0.061783757 -0.021076977 -0.057252616 -0.1479618 -0.0015002427 0.111672826 0.016518965 -0.1244414
-0.028516855 -0.044255372 -0.1578921 -0.040464688 -0.10489408 -0.25992405 -0.13125765 -0.21279056
-0.014455764 -0.01250216 -0.12797605 -0.043039348 -0.028338524 -0.13725819 0.007750264 -0.017404763
-0.021433448 -0.079512686 -0.106059395 -0.009432713 0.03411659 -0.08562921 -0.07341156 -0.023417903

net.2.bias f4 [64]
00000000: 0879 34be 4ab1 acbe 1dec 36be 07fd 5abd
00000010: 94fd 153f a7bb 89be 6c55 c1bd 57b2 c3be
00000020: c802 1abe e36b 073e 9e49 83be a76c 16be
00000030: 1bd9 a4be 1b81 873d 6cef bebd a5b3 dfbb
00000040: 37ec 183e 17dc f1bd 5121 dcbd e425 edbe
00000050: ba3e ea3e a5c0 9abe 0b52 9abd 31fb bdbe
00000060: d408 abbd aa2b 2540 d489 eabe c993 1dbe
00000070: d211 36be 7fa4 743b 544b 093f b51b 1fbe
00000080: e1d9 3cbe 539e 19be 3f36 5b3f 54f8 1ebe
00000090: 7f8d 8c3f a43f 433f 3919 393d b551 cebc
000000a0: 4452 ac3d eadb 81be d59b 45be 22c2 44be
000000b0: 8be6 16bf ea0c 4bbf 1d53 d8bc 0bb7 44be
000000c0: 6c2f 19bf 4e4c 44be fba3 a23f 5ee5 07bf
000000d0: c02b 7b3e 6132 2abe 88a5 bcbd cd01 e1bd
000000e0: c06d c1bc ac09 72bd cc2b 3140 3bc8 29be
000000f0: 029a 0abe be5a 0cbe cb95 c3bd aa33 3b3d
-0.17624295 -0.3372901 -0.17863508 -0.053463962 0.58590055 -0.2690098 -0.09440121 -0.38222
-0.15040123 0.1322475 -0.25642103 -0.14689885 -0.32196888 0.06616422 -0.0932301 -0.006826835
0.14933859 -0.11809557 -0.10748542 -0.4631797 0.45750982 -0.302251 -0.0753518 -0.37105706
-0.08351293 2.58079 -0.4580828 -0.15388407 -0.17780235 0.0037329493 0.53630567 -0.15537913
-0.18442489 -0.15001802 0.8562965 -0.15524417 1.0980681 0.7626898 0.04519007 -0.025185445
0.084141284 -0.25363094 -0.19297726 -0.19214681 -0.5894553 -0.7931658 -0.026406819 -0.1921045
-0.59837985 -0.19169733 1.2706293 -0.5308436 0.24528408 -0.1662078 -0.0921126 -0.109866716
-0.023611903 -0.059091255 2.7682981 -0.16580288 -0.13535312 -0.1370649 -0.09550055 0.045703568

net.4.weight f4 [3, 64]
00000000: 2eeb c4bc 3529 2ebc 9228 ae3d 6558 c93c
00000010: 6c6d efbc f938 8dbd a0d9 123c c137 0dbe
00000020: 1265 3f3d 899c 87bf 2741 c4bc 23bf 033d
00000030: 2ef2 bcbe f105 ddb9 5694 2cbd 373c cb3c
00000040: 3c48 2fbf 412f e63c 36b3 29bc 3adb 27bd
00000050: a5bd 33bd 3f8c 11bd aa50 833d 81f9 b8bd
00000060: 97cc 313e d52f b33e 1722 d83d 99ef a53c
00000070: d054 38bd e5f3 93ba 4a6e 0d3c 8f42 cc3b
00000080: 856c 4e3c 05e0 d5bc aa0a c03b 2dc5 203d
00000090: 09d7 6c3e 929e 843d 4910 bbbd e7a8 433d
000000a0: e124 443d b8b7 2dbe 4d56 8abc ccee 5abd
000000b0: e521 f23c 7915 663e 64a0 edbc fd7a 033d
000000c0: 5992 45be 79e1 953d 85a9 793f 7727 45bc
000000d0: c0d1 2ebd bace a6bd 3198 fbbc 7abc a9bd
000000e0: 98fc 293b 387e 82bc 7e27 d73e 13f4 a33c
000000f0: 986c a8bc 36bd de3c 1289 10bd 4bbc 043d
00000100: d05d 2dbb 607a 4b3c db71 c4bd 39f1 813c
00000110: 5fc7 09bc 8799 b6be e917 913d 530f 193c
00000120: a33b acbc be6d 3d3d 08de 463b f4fe c6bc
00000130: 1614 bdbb 3e65 bc3e 63cf 583d e0fb ac3c
00000140: 3e1d dcbc 3857 543d 9c2a 8fbc af67 6fbc
00000150: 8347 e6be 9b72 a5bd 7090 183c 81b8 bbbc
00000160: 32cf 7d3c 52fd 803e 39f3 d1bc 8dd3 353d
00000170: 2de9 cdbd 02c5 1a3c e180 fc3d 2141 f83b
00000180: 4f50 463d 7fe6 52bd 2074 d0bf 53b8 07ba
00000190: 3cbb c73e ca85 bebf 5547 4f3d c2d6 ad3d
000001a0: 735e 90bf 6d49 7b3d daf3 f339 1e8c 863c
000001b0: 93e0 0c3c e418 f83b 91d0 943d 9de8 5c3c
000001c0: cd35 56bd bcc0 b23c 5a29 f4bc ffe4 9bbc
000001d0: 17ec 0a3f 23ef 343e f303 b53c 442b 77bc
000001e0: 6e78 ea3c 79ec b43c c943 da3e 5597 a1bc
000001f0: d08b 9ebc 573d 9e3d b6a0 2dbd 6da7 cbbd
00000200: f5c2 d33d 511f a1be da2e f3bd 8ce7 86bd
00000210: cfeb e4bf 3456 72bd a359 4a3c 4b8a 15bd
00000220: 4862 6ebd 1ef1 d53d c35c 8abd 2d71 b0bd
00000230: 8d64 e83d 9fdb ca3d 81f4 163d cc2b 1a3d
00000240: 4aa2 e73d 2844 ec3b 8198 173d 09d7 f6bc
00000250: 61a3 b6bd 6b72 e5be 3464 5e3d ad84 533a
00000260: c914 f8bc 00ba 793e 3525 f13d c713 053b
00000270: 649d 44bf 17c0 4fbc 57d2 723e b924 4abc
00000280: b659 de3d d6ab 7f3b e14a 1d3c 15c4 5ebd
00000290: f0b3 ad3e e1ca c63d a9dc 0fc0 2704 26bd
000002a0: 8423 1e3e 2012 7cbd 7f61 d63c c087 7e3d
000002b0: 8b53 34bd 108a ccbd 8024 0dbc 2909 28ba
000002c0: df1d fbbd 3ce4 333d f00f 79bf 77e2 76bd
000002d0: 06b5 ae3e 6f1a 2abf 18f4 003d 1070 cb3c
000002e0: dcb5 bfbb 2877 adbc f718 003f 4cad 5fbd
000002f0: 0078 ac39 9ff1 283c 866b 3dbd 79ef ff3b
-0.024037924 -0.010629942 0.08503832 0.024578283 -0.029226981 -0.06895632 0.008963019 -0.137908
0.046727248 -1.0594646 -0.023956848 0.032164704 -0.36903518 -0.00042156831 -0.04213365 0.024808986
-0.68469596 0.028098704 -0.010357669 -0.040980555 -0.04388203 -0.03553414 0.0641187 -0.09031964
0.17363201 0.3499743 0.10553377 0.02025585 -0.04500276 -0.0011287896 0.008632252 0.0062335203
0.012599115 -0.026107797 0.0058606463 0.03925054 0.23128904 0.064755574 -0.091339655 0.0477685
0.047886733 -0.16964614 -0.016886855 -0.05345039 0.029557178 0.22469129 -0.029007144 0.032099713
-0.19294108 0.07318396 0.9752429 -0.012033335 -0.042680502 -0.08144899 -0.030712219 -0.08287902
0.002593791 -0.015929326 0.42022318 0.020013845 -0.020559594 0.027189832 -0.03528697 0.032406133
-0.0026453622 0.012419313 -0.09592029 0.015862094 -0.00840935 -0.35664007 0.070846386 0.0093420325
-0.02102453 0.046247236 0.0030344743 -0.024291493 -0.0057702167 0.36795992 0.052932154 0.021116197
-0.026869413 0.05184099 -0.017476372 -0.014612122 -0.44976434 -0.080785 0.00931178 -0.022915127
0.015491294 0.25193268 -0.025628673 0.044391204 -0.100542404 0.009446384 0.12329269 0.0075761233
0.048416432 -0.05148935 -1.6285439 -0.0005177308 0.39010036 -1.4884579 0.050605137 0.084882274
-1.1278824 0.06134932 0.00046530255 0.016424235 0.008598465 0.0075713266 0.072663434 0.013483194
-0.052297402 0.021820419 -0.029804874 -0.019030092 0.54266495 0.17669348 0.02209661 -0.015085999
0.028621878 0.022085415 0.4262984 -0.019725481 -0.019353777 0.077265434 -0.042389594 -0.09944043
0.103399195 -0.31469205 -0.118741706 -0.06587133 -1.7884463 -0.05916424 0.012350473 -0.03650884
-0.058199197 0.1044638 -0.06755974 -0.086153366 0.113473035 0.09905171 0.03685427 0.037639424
0.11310251 0.0072102733 0.037010673 -0.030131834 -0.08917881 -0.44813856 0.05429478 0.00080687815
-0.030283349 0.2438736 0.11774675 0.0020305978 -0.7680266 -0.012680075 0.23713051 -0.012337857
0.10856955 0.0039012334 0.009600372 -0.054386217 0.33926344 0.09706665 -2.247843 -0.040531304
0.15443236 -0.061540723 0.026169537 0.06214118 -0.044024985 -0.09987271 -0.008614659 -0.00064100564
-0.12261557 0.043918833 -0.97289944 -0.060274567 0.34122485 -0.66446584 0.031482786 0.024833709
-0.0058505367 -0.021174982 0.50038093 -0.05460863 0.00032895803 0.010311513 -0.04624512 0.00781053

net.4.bias f4 [3]
00000000: 16ae 613f 57b6 b93e 6717 583e
0.8815626 0.36271927 0.21102677
