dqn.pth (torch, 76000 bytes, 6 tensors)

net.0.weight f4 [128, 11]
0.091530345 -0.63564533 -0.037187573 -0.42208114 0.07868851 -0.47242555 -0.77045393 -0.513599
-0.041225627 0.098217644 0.18029937 0.92426693 -0.067363314 -0.042501643 -0.9008833 0.15317576
0.47376662 -0.5730358 -1.5567982 0.24421722 -0.0990732 -0.31430852 -0.36139426 0.45887682
0.14660488 -0.50253457 0.017999291 -0.903817 0.16340213 0.2561107 -1.1569161 -0.6747886
-1.1066725 -0.37371513 0.74403405 -0.18013476 0.41528186 -0.6606775 0.24199893 -0.9076119
-0.5008601 -0.9669713 -0.81262016 -0.014082138 0.4264121 -0.3854022 0.12640649 -0.02187491
-0.7169742 -0.3275548 -0.82384604 -0.16832294 -0.32702857 -0.27253726 -0.99174947 0.19540873
0.2632754 0.14721549 -1.283901 -0.43700045 -0.30751735 0.026304137 -0.1085486 0.17180859
-0.50177544 0.26930273 -1.3792449 0.25726733 0.321966 -0.38888 0.3655426 0.33417442
0.22228687 -1.0059806 0.45940462 -0.3710906 0.20431973 0.34418905 0.5135614 -0.7219886
-0.6904776 -0.67236984 0.03147059 -0.7556363 -0.69899136 -0.78791624 -0.014876409 0.24570082
0.3896217 -0.46506363 0.1273833 -0.7298154 -0.05607686 0.84267527 -0.15309344 -0.7940488
-1.105366 -1.2781584 0.23208283 -0.04231879 -0.03619844 0.12614802 -0.22622621 0.105513625
0.16795832 -0.13677296 -0.04070622 -0.29817247 -0.20096457 -0.09915334 0.19902803 0.73726606
-1.2759192 -1.3411106 -0.68036824 0.7338391 -0.96745884 -0.0035420791 0.29143968 -1.7752819
-1.4271775 0.018961845 1.1813946 -0.8225825 -0.3253675 -0.11837169 0.62834543 -0.6495227
-0.32786193 -0.06904773 -0.20943452 -0.113202915 0.39159527 -0.6847723 0.2053456 0.10046809
-1.1909225 -0.43614143 -1.1519146 -0.7773178 0.39521474 -0.36775622 -0.69103444 -0.95180213
-0.6230477 0.77341413 -0.57307065 -0.6145038 0.32213023 -1.0869559 0.5001119 0.50398463
-0.1057524 -0.9679286 0.30205578 -0.15493906 -0.6288748 -0.36395168 -0.047106467 -0.058079578
-0.5594899 -0.10483738 -0.31692618 -0.6023363 -0.6205558 0.18695392 0.64042044 0.6436025
-0.76258653 -0.30099228 0.25850642 -0.077046715 -0.9535681 -0.10903576 -0.5260881 -1.1900072
-0.084963426 -0.22155818 -0.15834355 -0.28897214 -0.0005994536 -0.13583054 -0.17865264 -0.018275827
-0.15898053 -0.27425414 -0.025462836 -1.5799283 0.11560215 0.07395932 0.7555626 0.13450922
0.5956955 0.30204007 0.38524067 0.3009571 0.23750962 -0.0037472353 -0.42595786 0.39954016
0.1625957 0.024170406 -0.16093646 -0.18670589 -0.9565232 -0.32062256 -0.72833985 -0.2223288
-0.67412025 -0.5299976 -0.910009 0.07461435 -0.21085714 0.25101498 -0.25311464 -0.17479563
-0.42281282 -0.79598653 -0.26322937 -0.3696714 0.4106727 -0.0095231645 -1.3178622 0.20403984
-0.6294819 0.1350291 -0.99649924 -1.0263127 -0.019454228 -1.4550389 0.34400153 -0.37079588
0.046375006 0.3299549 0.07274576 -0.24470587 -0.0010158245 -0.08470169 -0.6502504 -0.212794
-0.7805449 -0.62571275 0.45887947 0.18391624 -0.21491945 0.1341735 -0.53789246 -0.48975503
-0.21803078 -0.49370223 -0.8292672 0.020586034 -0.4567848 0.18921787 0.41871366 0.19659957
00000000: 4374 bb3d a7b9 22bf ff51 18bd 051b d8be
00000010: 7127 a13d c3e1 f1be 783c 45bf 397b 03bf
00000020: 34dc 28bd 5526 c93d 66a0 383e c29c 6c3f
00000030: c7f5 89bd 3416 2ebd 4aa0 66bf 1bda 1c3e
00000040: 8a91 f23e 79b2 12bf 2a45 c7bf 1414 7a3e
00000050: e4e6 cabd 0ced a0be ab08 b9be e7f1 ea3e
00000060: 971f 163e 1ba6 00bf 4073 933c 8d60 67bf
00000070: e352 273e f120 833e d415 94bf f2be 2cbf
00000080: 72a7 8dbf 9757 bfbe 0479 3e3f 3f75 38be
00000090: d39f d43e 2922 29bf 91ce 773e 4159 68bf
000000a0: 5e38 00bf 6e8b 77bf e007 50bf c5b8 66bc
000000b0: b052 da3e 7053 c5be b470 013e 0333 b3bc
000000c0: 9f8b 37bf 43b5 a7be 93e7 52bf d95c 2cbe
000000d0: 4a70 a7be 018a 8bbe 4be3 7dbf 3a19 483e
000000e0: 09cc 863e a8bf 163e de56 a4bf 86be dfbe
000000f0: ea72 9dbe c67b d73c ba4e debd 97ee 2f3e
00000100: 5b74 00bf 0ce2 893e 198b b0bf 8bb8 833e
00000110: bad8 a43e 481b c7be 6628 bb3e e918 ab3e
00000120: 2b9f 633e f9c3 80bf 1537 eb3e 96ff bdbe
00000130: 3139 513e 8c39 b03e c378 033f 3fd4 38bf
00000140: 24c3 30bf 6e20 2cbf 4ee7 003d 6171 41bf
00000150: 19f1 32bf e1b4 49bf 2fbc 73bc ff98 7b3e
00000160: 7f7c c73e d21c eebe c570 023e 2fd5 3abf
00000170: d9b0 65bd 91b9 573f 87c4 1cbe c846 4bbf
00000180: a27c 8dbf b29a a3bf 1fa7 6d3e 7856 2dbd
00000190: d144 14bd f22c 013e d8a7 67be 8717 d83d
000001a0: 44fd 2b3e 360e 0cbe 91bb 26bd 10aa 98be
000001b0: a8c9 4dbe e810 cbbd 01ce 4b3e 78bd 3c3f
000001c0: 5251 a3bf 83a9 abbf 9d2c 2ebf e1dc 3b3f
000001d0: 62ab 77bf 3a22 68bb 9537 953e 703c e3bf
000001e0: c1ad b6bf df55 9b3c f037 973f c494 52bf
000001f0: 9296 a6be db6c f2bd 3fdb 203f 1f47 26bf
00000200: 85dd a7be e568 8dbd 0176 56be eed6 e7bd
00000210: 2d7f c83e 3d4d 2fbf 1e46 523e 37c2 cd3d
00000220: 2670 98bf ee4d dfbe f071 93bf 4dfe 46bf
00000230: 9659 ca3e 8b4a bcbe a2e7 30bf 4ea9 73bf
00000240: 0e80 1fbf 78fe 453f c2b4 12bf 1f50 1dbf
00000250: 41ee a43e 5f21 8bbf 5507 003f 2305 013f
00000260: b794 d8bd 2bca 77bf 0ea7 9a3e 58a8 1ebe
00000270: f0fd 20bf e057 babe b6f2 40bd dae4 6dbd
00000280: bb3a 0fbf fbb4 d6bd 2644 a2be b632 1abf
00000290: bfdc 1ebf d970 3f3e 98f2 233f 22c3 243f
000002a0: df38 43bf a91b 9abe f45a 843e abca 9dbd
000002b0: 0a1d 74bf 244e dfbd b6ad 06bf 2852 98bf
000002c0: 4e01 aebd 26e0 62be d024 22be 28f4 93be
000002d0: a624 1dba 2917 0bbe b8f0 36be 30b7 95bc
000002e0: cbcb 22be 0a6b 8cbe 7097 d0bc 173b cabf
000002f0: d2c0 ec3d fc77 973d 8d6c 413f c9bc 093e
00000300: 807f 183f ffa4 9a3e 443e c53e 0d17 9a3e
00000310: b935 733e 2d94 75bb 2617 dabe 8790 cc3e
00000320: 7d7f 263e 0401 c63c 87cc 24be d42f 3fbe
00000330: b4de 74bf a428 a4be 7b74 3abf 29aa 63be
00000340: 2593 2cbf ecad 07bf 5af6 68bf 69cf 983d
00000350: efea 57be 0985 803e 3e98 81be a0fd 32be
00000360: ec7a d8be c6c5 4bbf 00c6 86be 9245 bdbe
00000370: b143 d23e 0c07 1cbc b5af a8bf d2ef 503e
00000380: ba25 21bf 1245 0a3e 931a 7fbf 375e 83bf
00000390: 795e 9fbc b73e babf f820 b03e f5d8 bdbe
000003a0: b8f3 3d3d d9ef a83e bbfb 943d 2d94 7abe
000003b0: 6a25 85ba 1478 adbd cf76 26bf ace6 59be
000003c0: cad1 47bf b62e 20bf 40f2 ea3e 8a54 3c3e
000003d0: d813 5cbe c764 093e 52b3 09bf 2cc1 fabe
000003e0: 7643 5fbe 8ac6 fcbe db4a 54bf 0ba4 a83c
000003f0: b3df e9be 54c2 413e a361 d63e 6651 493e

net.0.bias f4 [128]
-0.48516935 -1.0161088 -0.4473339 -0.12710872 -0.43820474 -0.9226356 0.57032543 -1.1450369
-0.24098176 -0.27560547 -0.3017276 0.035232104 -0.85496044 -0.7502611 -0.16210695 -0.17874198
-0.0005753435 0.47755122 -0.4100605 -0.0712709 0.077243574 -0.27642044 -0.8020456 0.66107494
0.34723964 -0.4685758 -0.010005483 -0.06539755 -0.31795338 -0.3577267 -0.60940653 -0.20507367
-0.8130645 -0.72398424 -1.0336798 -0.49015373 -0.8837097 -0.6216522 -0.6240572 0.19174027
-0.70436084 -0.3308117 -0.42522293 -0.74559975 0.26382673 0.36356348 -0.812034 -0.28241032
-0.1584449 -1.2419903 -1.1747632 0.24242404 -0.11814408 -0.29964772 -0.35972238 -0.17721249
-0.27424055 0.9508542 -0.747751 1.028577 -1.0016135 -0.68538314 -0.8970131 -0.51442176
-0.6701399 -0.08085013 -1.0740937 -0.6505647 -0.24458699 -0.4478403 -0.3010136 -0.35516295
-0.5785279 -0.22472629 -0.8424475 0.61918414 -0.7267993 -0.7101016 -1.0066674 -1.0090318
-0.94837254 -1.1349285 -1.2088935 0.07326349 -0.52122813 0.25535852 -0.66193503 0.18749273
-0.4112578 -0.6018343 -0.67014045 -0.45603088 -0.6573977 -0.40074745 -0.49496692 -0.6084144
0.102006525 -0.62384325 -0.108729295 0.6875226 -0.7131677 -0.42855388 -0.12821491 -0.28583172
-0.59112924 -0.54087216 -0.9482012 0.053092323 -0.10781881 0.10298505 -0.671506 -0.5603045
-0.86293054 0.060897913 -0.44593617 -0.56644064 -0.68782896 -0.90431386 -0.4284724 0.3279175
-0.11246106 -0.82286507 -0.31617123 -0.5762769 -1.0223571 -0.8465051 -0.78712064 -0.16235816
00000000: 1e68 f8be da0f 82bf f308 e5be ca28 02be
00000010: 5f5c e0be d931 6cbf d900 123f 9290 92bf
00000020: ecc3 76be 291c 8dbe 0a7c 9abe 8a4f 103d
00000030: b0de 5abf 1d11 40bf 5dff 25be 2308 37be
00000040: a6d2 16ba 9881 f43e 73f3 d1be 7af6 91bd
00000050: e131 9e3d fb86 8dbe dc52 4dbf 353c 293f
00000060: 65c9 b13e 2be9 efbe 0aee 23bc 27ef 85bd
00000070: c9ca a2be f427 b7be 1102 1cbf d5fe 51be
00000080: ff24 50bf 0857 39bf 9f4f 84bf 6ef5 fabe
00000090: cd3a 62bf 9924 1fbf 36c2 1fbf 9057 443e
000000a0: fe50 34bf 2760 a9be d2b6 d9be a0df 3ebf
000000b0: 4c14 873e fe24 ba3e 76e1 4fbf 1698 90be
000000c0: 613f 22be 8af9 9ebf a45e 96bf 023e 783e
000000d0: 86f5 f1bd 6d6b 99be 882d b8be 3177 35be
000000e0: 4269 8cbe 2e6b 733f 9c6c 3fbf 69a8 833f
000000f0: df34 80bf 4575 2fbf a7a2 65bf 25b1 03bf
00000100: 4a8e 2bbf c194 a5bd e77b 89bf 688b 26bf
00000110: 0375 7abe 534b e5be 741e 9abe ebd7 b5be
00000120: 681a 14bf a61e 66be a4aa 57bf da82 1e3f
00000130: 850f 3abf 38c9 35bf 7ada 80bf f427 81bf
00000140: 8bc8 72bf 5645 91bf 06bd 9abf 2b0b 963d
00000150: 356f 05bf 5abe 823e 9374 29bf 18fe 3f3e
00000160: 6290 d2be d011 1abf 538e 2bbf e17c e9be
00000170: 374b 28bf c52e cdbe 4e6c fdbe 0cc1 1bbf
00000180: cce8 d03d 31b4 1fbf 77ad debd 7b01 303f
00000190: 2992 36bf 6a6b dbbe c54a 03be 8958 92be
000001a0: 3f54 17bf 9976 0abf 50bd 72bf 5677 593d
000001b0: 1cd0 dcbd d3e9 d23d d1e7 2bbf 1e70 0fbf
000001c0: 04e9 5cbf 1770 793d bf51 e4be 4102 11bf
000001d0: 8f15 30bf 1d81 67bf bc60 dbbe cde4 a73e
000001e0: fc51 e6bd 49a7 52bf 32e1 a1be e286 13bf
000001f0: 99dc 82bf 8fb4 58bf bd80 49bf 3841 26be

net.2.weight f4 [128, 128]
-0.3523347 -0.42576164 -0.11108466 -1.446178 -0.08827174 -0.21515913 -0.7613413 0.0062390044
-0.7636349 0.068229236 -0.13289052 -0.22381873 -0.84596246 -0.2893807 -0.057309102 -0.28904557
0.016600989 -0.34227678 -0.52259773 -0.57909214 -0.43816733 0.08514681 -0.3970656 -0.60856026
-0.8191956 0.06519808 -0.4242212 -0.5334365 -0.05574261 -0.40402514 0.22524747 -1.4203641
0.39978123 0.44014436 -0.766417 -0.69428045 -0.42249912 -0.046006724 0.51943445 -1.0367959
-0.08428987 0.21439403 -0.059612174 0.03304994 -0.100324385 -0.68393165 0.24379225 0.08294303
-0.29748002 0.20749743 0.5136131 -0.74231666 -0.27873507 0.12638313 0.04085654 -0.19313976
-0.05061367 -0.18597907 -0.51301473 -0.77823377 -0.2995459 0.08825621 -0.32863447 -0.075715326
-0.47455367 -0.1338902 0.083482355 0.43905184 -0.052038714 -0.31385723 0.011440364 0.51450855
-0.08536936 -0.16771929 0.2955058 -0.65402645 -0.5550846 -0.4185809 -0.12038556 -0.2409129
-0.4091416 -0.24072117 0.10507039 -0.42297316 0.03949825 0.035585042 -0.11327898 -0.41582862
0.092855304 0.32154396 -0.38156015 -0.6020197 -0.254828 -0.5618024 -0.11549595 -0.14169665
-0.9442898 0.08741334 -0.54638726 -0.38811797 -0.51295155 0.20587538 -2.0195732 -0.35773224
-0.80754554 -1.1226981 0.6834756 -0.23622395 -1.0329927 -0.614314 -0.09200224 0.07180365
-0.15791807 0.00051557063 -0.18747155 -0.6419216 -0.02604161 -0.48434874 -0.15862446 -0.5723819
0.03748404 -0.19708937 0.23471844 -0.11889619 0.2008433 -0.22044958 0.06512886 -0.39696306
0.0373526 -0.16209766 0.41100058 0.21132442 -0.467027 0.39614895 -0.45149088 -0.24758743
-0.6533872 0.017279537 -1.2004565 0.385714 -0.0045309355 0.8697656 0.038065176 -0.22298615
0.07740343 -0.2379162 -0.49245128 -0.013203092 -0.5263831 0.17775775 0.06313621 -0.64336455
0.56654304 -1.4241619 -0.33543667 0.6981368 0.095302306 -0.21070799 -0.5612158 0.0029201694
-0.2523074 0.59018433 -1.1358737 0.94091785 1.3965499 -0.5379372 -0.1439527 0.6894582
0.32906336 -0.8298891 0.14775604 0.12563828 -0.45828283 -0.5746013 0.05351754 -0.03287716
0.36758474 0.33850756 -0.88607657 0.45999107 -0.895379 0.11778018 -0.25470006 -0.22117162
0.114649124 0.30038744 0.82057166 -0.7194303 -1.0196828 0.3064582 -0.9973035 -0.9271253
-0.50368357 0.19666587 -0.046093244 -0.35146302 -0.002960208 -0.43451434 -1.0641444 -0.37199733
-0.677366 -0.13178708 -0.9960454 -0.022257758 -2.0463808 1.0245987 -0.7565878 -0.57926154
-0.43126306 0.88126487 -0.21762852 -0.11935399 -0.51944673 0.6966436 -0.9670286 -1.44088
-0.080274455 0.6399675 -0.3840483 -0.30901235 0.5677958 -0.29439947 1.4264443 -0.43434483
-0.34453943 0.2511101 -1.469791 0.07400247 0.36013812 -0.32317555 0.1325443 0.0950229
1.5178386 -0.23816034 0.16707058 -0.7316867 0.5635467 -0.12616433 0.22570772 0.13168901
0.18883707 -0.27855384 -0.127769 1.4820901 -0.20948997 0.020486096 -0.33570755 0.04040714
-1.1256012 -0.43734744 0.37136948 -0.32205084 -1.0982597 -1.5819889 -2.4841566 0.8463192
00000000: 3765 b4be 6efd d9be 5b80 e3bd 5c1c b9bf
00000010: d0c7 b4bd ad52 5cbe 43e7 42bf 9070 cc3b
00000020: 947d 43bf c5bb 8b3d 7414 08be bd30 65be
00000030: ff90 58bf b529 94be f3bc 6abd c8fd 93be
00000040: ccfe 873c e73e afbe f7c8 05bf 623f 14bf
00000050: 7857 e0be 7361 ae3d 2f4c cbbe 9bca 1bbf
00000060: ceb6 51bf 9286 853d 8533 d9be 4b8f 08bf
00000070: 5d52 64bd 62dc cebe 46a7 663e 7ece b5bf
00000080: 20b0 cc3e 9a5a e13e e833 44bf 5dbc 31bf
00000090: ce51 d8be 8c71 3cbd a8f9 043f bab5 84bf
000000a0: 2ba0 acbd 1c8a 5b3e e52b 74bd 605f 073d
000000b0: df76 cdbd 2516 2fbf ada4 793e 09de a93d
000000c0: 4d4f 98be 357a 543e 267c 033f 7708 3ebf
000000d0: 5db6 8ebe 946a 013e 3059 273d 6ec6 45be
000000e0: 4850 4fbd 4c71 3ebe ef54 03bf 543a 47bf
000000f0: 155e 99be acbf b43d c742 a8be a310 9bbd
00000100: b3f8 f2be 831a 09be ccf8 aa3d 67cb e03e
00000110: 8c26 55bd e5b1 a0be 5d70 3b3c d5b6 033f
00000120: 22d6 aebd 9bbe 2bbe 894c 973e 476e 27bf
00000130: 061a 0ebf 3c50 d6be b48c f6bd dfb1 76be
00000140: 027b d1be 9c7f 76be 252f d73d f08f d8be
00000150: ebc8 213d 9fc1 113d cffe e7bd 7de7 d4be
00000160: ec2a be3d 69a1 a43e da5b c3be f71d 1abf
00000170: d178 82be 48d2 0fbf 2489 ecbd ed18 11be
00000180: fabc 71bf c405 b33d 09e0 0bbf 66b7 c6be
00000190: cb50 03bf ffd0 523e b040 01c0 ae28 b7be
000001a0: 4ebb 4ebf 92b4 8fbf 42f8 2e3f b1e4 71be
000001b0: 1b39 84bf af43 1dbf ac6b bcbd cb0d 933d
000001c0: 46b5 21be 5c27 073a 8bf8 3fbe f954 24bf
000001d0: 3755 d5bc 8ffc f7be 736e 22be 9f87 12bf
000001e0: dd88 193d ccd1 49be 085a 703e d87f f3bd
000001f0: dea9 4d3e 89bd 61be 4862 853d be3e cbbe
00000200: 0aff 183d eefc 25be ab6e d23e 6e65 583e
00000210: 2a1e efbe 09d4 ca3e d029 e7be 8f87 7dbe
00000220: 6244 27bf d18d 8d3c 8fa8 99bf 4e7c c53e
00000230: 3e78 94bb f5a8 5e3f 3bea 1b3d 7b56 64be
00000240: b185 9e3d 4ea0 73be 9322 fcbe c851 58bc
00000250: 0bc1 06bf 2106 363e 8f4d 813d 8ab3 24bf
00000260: f708 113f f04a b6bf 5bbe abbe 18b9 323f
00000270: db2d c33d d6c3 57be d7ab 0fbf 5060 3f3b
00000280: 6f2e 81be 5216 173f 4f64 91bf fedf 703f
00000290: 26c2 b23f 41b6 09bf 5668 13be 5580 303f
000002a0: fe7a a83e 9d73 54bf 5c4d 173e 52a7 003e
000002b0: 0ca4 eabe 1219 13bf 3535 5b3d 33aa 06bd
000002c0: 1134 bc3e dd50 ad3e ead5 62bf f383 eb3e
000002d0: 8f37 65bf bc36 f13d 0c68 82be d07a 62be
000002e0: 29cd ea3d 62cc 993e fc10 523f 962c 38bf
000002f0: f784 82bf 17e8 9c3e 484f 7fbf 1558 6dbf
00000300: 68f1 00bf c762 493e 45cc 3cbd f6f2 b3be
00000310: 0d00 42bb aa78 debe e235 88bf 6f76 bebe
00000320: dc67 2dbf 31f3 06be d5fc 7ebf e755 b6bc
00000330: e7f7 02c0 0d26 833f bdaf 41bf 7c4a 14bf
00000340: 83ce dcbe 939a 613f 03da 5ebe dd6f f4bd
00000350: 76fa 04bf 3c57 323f 308f 77bf c16e b8bf
00000360: ef66 a4bd e9d4 233f fba1 c4be de36 9ebe
00000370: 115b 113f 87bb 96be ba95 b63f 7262 debe
00000380: 7967 b0be 8191 803e 1d22 bcbf 9b8e 973d
00000390: 0664 b83e 4477 a5be b1b9 073e 5e9b c23d
000003a0: 8948 c23f 4ee0 73be 8d14 2b3e d24f 3bbf
000003b0: 9944 103f 3931 01be ed1f 673e 7cd9 063e
000003c0: 815e 413e 9c9e 8ebe e0d5 02be 21b5 bd3f
000003d0: 8a84 56be 75d2 a73c dce1 abbe f581 253d
000003e0: b313 90bf 01ec dfbe 2424 be3e d9e3 a4be
000003f0: c693 8cbf 9d7e cabf 6cfc 1ec0 60a8 583f

net.2.bias f4 [128]
-0.26733288 -0.454763 -0.3109588 -0.39017633 0.8734553 0.20018534 -0.1523352 -0.40936643
-0.33885726 -0.15982781 0.2162442 -0.18421544 -0.22562818 1.2855055 -0.14758028 0.1072855
-0.3814101 -0.074122295 0.49263445 -0.36472297 0.09513993 -0.46810317 0.04184242 -0.24914046
0.11776841 -0.19002652 1.1244293 -0.27981406 0.828457 -0.34596282 -0.5050392 -0.42029774
-0.19534436 -0.06301513 -0.37314677 -0.19109654 -0.016685955 0.45552906 -0.46655926 -0.20513406
-0.05385624 -0.04920928 -0.5858927 -0.68789536 0.04436519 -0.45176417 -0.49905968 -0.1452196
-0.26070327 -0.5060521 -0.16956758 -1.2037619 -0.24369735 -0.42784756 -0.06161534 0.18200701
-0.2586149 0.45868245 0.21327229 0.69415104 -0.13383822 -0.2120306 -0.07915803 -0.46398988
-0.089494176 -0.41513342 0.42171183 1.1759915 -0.16529216 -0.18002586 -0.017401135 -0.4628984
-0.5132828 0.20241794 0.73924536 -0.12623465 -0.46990415 -0.39063364 -0.5957345 -0.67228717
-0.19262618 1.2809144 -0.13300695 -0.2068451 0.039670266 0.3643557 -0.4000977 -0.6123913
-0.08691514 -0.20972423 -0.69638354 0.372524 -0.70008767 1.1171073 -0.3459202 -0.263738
-0.21683922 -0.40182927 0.27306244 -0.22494756 -0.4264873 -0.011135568 -0.09970149 0.172924
-0.25231513 0.2671124 -0.36081502 0.26993394 -0.895538 0.15778351 -0.3968669 -0.9060658
0.27671602 -0.057083454 -0.1036363 0.21774358 -0.34997466 -0.27464527 -0.055429522 -0.3970655
0.43623737 -0.6686298 -0.5788502 -0.08512205 -0.17495081 -0.5268704 -0.1897885 -0.3752079
00000000: dbdf 88be b2d6 e8be fe35 9fbe 31c5 c7be
00000010: c49a 5f3f 63fd 4c3e c2fd 1bbe 7a98 d1be
00000020: b37e adbe e7a9 23be 1f6f 5d3e f9a2 3cbe
00000030: 130b 67be 728b a43f 491f 17be 80b8 db3d
00000040: 2f48 c3be 6ecd 97bd 953a fc3e f8bc babe
00000050: b9d8 c23d 38ab efbe f562 2b3d ad1e 7fbe
00000060: 9030 f13d 5096 42be 4ded 8f3f ca43 8fbe
00000070: c215 543f 0a22 b1be 404a 01bf 4431 d7be
00000080: 5a08 48be 140e 81bd 180d bfbe d0ae 43be
00000090: fcb0 88bc 1b3b e93e dbe0 eebe aa0e 52be
000000a0: 5c98 5cbd ac8f 49bd 10fd 15bf e919 30bf
000000b0: 46b8 353d a24d e7be c084 ffbe 72b4 14be
000000c0: e67a 85be a18c 01bf 20a3 2dbe df14 9abf
000000d0: cc8b 79be d60e dbbe 5e60 7cbd 0c60 3a3e
000000e0: 2c69 84be 6dd8 ea3e 0d64 5a3e e2b3 313f
000000f0: e30c 09be 8d1e 59be 9b1d a2bd 1590 edbe
00000100: b948 b7bd 5e8c d4be 9dea d73e e486 963f
00000110: 5942 29be b358 38be d38c 8ebc 0501 edbe
00000120: 8066 03bf a646 4f3e 2f3f 3d3f a843 01be
00000130: 4797 f0be 2201 c8be 0e82 18bf 031b 2cbf
00000140: cc3f 45be 01f5 a33f f932 08be 34cf 53be
00000150: 4a7d 223d d58c ba3e 9bd9 ccbe adc5 1cbf
00000160: 9100 b2bd f3c1 56be 3146 32bf 77bb be3e
00000170: f238 33bf 5ffd 8e3f 741c b1be ab08 87be
00000180: 1a0b 5ebe 91bc cdbe d7ce 8b3e a758 66be
00000190: 8b5c dabe f571 36bc 4b30 ccbd fd12 313e
000001a0: 732f 81be f5c2 883e bfbc b8be c834 8a3e
000001b0: fa41 65bf 0092 213e 2332 cbbe eef3 67bf
000001c0: b9ad 8d3e 57d0 69bd 453f d4bd 2cf8 5e3e
000001d0: e12f b3be 4e9e 8cbe 110a 63bd 2b4c cbbe
000001e0: 815a df3e 532b 2bbf 872f 14bf 7854 aebd
000001f0: 4e26 33be fbe0 06bf eb57 42be 401b c0be

net.4.weight f4 [3, 128]
-0.3735866 0.797665 -1.2011962 -0.20252594 0.23922986 -0.16944909 -0.007222563 0.6479085
-0.004804245 0.0052026515 -0.7766315 -0.10069495 -1.4999795 0.41890284 -0.026033554 -0.47821254
-0.3322105 0.023335034 0.16707051 -1.2708149 -0.46992388 0.15268302 -0.04504644 -1.440002
0.092630096 0.27946693 0.30503455 0.97895783 0.33213228 -0.035214428 1.1875292 -0.15592729
-1.1141915 0.19465211 -1.1483222 1.1264622 -0.043374304 -0.25012884 -0.3412006 -0.00024056419
-0.062212247 0.052788787 -0.29552352 0.38965535 -0.056110397 0.9546259 -0.43313953 0.0077132713
-0.8051702 0.02429874 0.061820813 -0.7528936 -0.53413725 -0.45818418 0.004230977 -1.8813207
-0.4760912 0.098408595 -1.0944136 -1.3917013 -0.047808696 -1.0119416 -0.032728203 -0.78354573
0.32728785 -0.18527001 0.00117455 0.3325275 0.0041460474 0.49261633 -0.8155025 -0.46002567
0.43297225 -1.009152 -2.1066203 -0.027058885 -0.09656864 0.037611745 -1.1755452 0.53756094
-1.0592576 0.43776268 -0.038381614 -0.0021531044 -0.32723215 0.1078545 0.19279496 -0.14206824
0.044718537 0.011097298 0.4435734 0.16015418 -0.72102207 -1.3705099 -0.14696662 -0.44512057
-1.2961628 -0.011009697 -0.4032838 -0.69729984 -1.4557056 -1.2042927 0.13118175 -0.303939
-1.7559526 -0.71297604 0.46637803 -0.75729954 0.48286688 -0.9086956 0.33078095 -0.30969453
0.8382396 -0.276016 -0.025145764 -0.0047957697 0.024343561 -0.32992044 -0.029092861 0.017645702
-1.1813264 1.3634104 -1.717704 -0.10886204 0.20776425 1.4326175 -0.10296396 0.6646622
-0.3194488 -0.94916683 -0.21374185 -0.24703228 -0.2932371 -0.7024762 -0.20656264 -0.025242576
-0.67519236 0.23074915 -0.4753087 -1.0301654 -0.9637808 0.46720916 7.120774e-05 0.37910193
0.021658342 -0.06702033 -1.7559217 -0.06330664 -1.6528168 0.0011120698 0.52684313 -0.48003867
0.0008821629 0.0595289 0.37607014 0.996052 0.15673165 -0.01649292 -0.12541515 0.06590672
0.14099827 -0.46272978 0.8115084 0.83897096 -1.5400324 -3.110229 0.49336326 -1.3232262
-0.03273259 -0.011435525 0.24619964 -0.07022886 0.5247979 -0.01731255 0.73711956 0.009036712
-0.38420457 -0.5793823 -0.14173265 0.5345108 0.3888863 0.60827196 0.006402007 -0.21384469
0.03929951 0.18266931 -0.054719653 -1.7282716 -0.2560891 0.20224902 0.03389077 -0.08901362
-0.33507606 0.43790632 -1.980856 0.49117216 -0.029210053 0.40027842 0.4313778 0.5732821
0.91103727 0.39317098 -0.62966996 0.0333378 -0.008912267 -0.8909372 -0.0967404 1.2257863
0.00014931627 0.44844535 0.025149452 -1.9693131 0.15555924 -2.2374136 0.008071879 0.16901213
0.0861214 0.040019065 0.719013 0.097280145 0.47131234 -1.3261665 -0.9124657 0.19753908
-0.22932029 -0.032636855 -0.97428256 0.5537265 0.5726423 0.61090815 0.063813806 -0.6742386
0.073332734 0.4150195 0.9700486 0.2443312 -0.7254196 0.22833376 -1.0478928 -0.4024323
-1.7164943 0.25073236 0.052351847 -0.2680572 -0.27100793 -0.3486243 0.0081029935 -0.3137854
-0.7646471 -0.38429582 0.22909532 -0.3764342 0.03165455 -0.503338 -0.8336539 0.21903309
00000000: be46 bfbe c633 4c3f ccc0 99bf f662 4fbe
00000010: acf8 743e 1084 2dbe 40ab ecbb 55dd 253f
00000020: ee6c 9dbb 017b aa3b 52d1 46bf 2739 cebd
00000030: 54ff bfbf 6f7a d63e 5244 d5bc 46d8 f4be
00000040: 7f17 aabe 1d29 bf3c 8814 2b3e 10aa a2bf
00000050: dd99 f0be f058 1c3e 9e82 38bd fc51 b8bf
00000060: d9b4 bd3d 4a16 8f3e 7d2d 9c3e fb9c 7a3f
00000070: 3e0d aa3e 013d 10bd f500 983f 67ab 1fbe
00000080: d49d 8ebf e252 473e 39fc 92bf ea2f 903f
00000090: 41a9 31bd e310 80be d8b1 aebe f53f 7cb9
000000a0: 45d2 7ebd 0e39 583d dc4e 97be e880 c73e
000000b0: 04d4 65bd 5d62 743f 77c4 ddbe 9cbf fc3b
000000c0: a21f 4ebf 270e c73c d237 7d3d a3bd 40bf
000000d0: 38bd 08bf 1e97 eabe 02a4 8a3b 1ecf f0bf
000000e0: 3ac2 f3be 728a c93d bf15 8cbf 4523 b2bf
000000f0: 0dd3 43bd 4d87 81bf 020e 06bd 7496 48bf
00000100: 4692 a73e 6cb7 3dbe 5cf3 993a 0b41 aa3e
00000110: 91db 873b 3538 fc3e c6c4 50bf 7c88 ebbe
00000120: 8aae dd3e e52b 81bf ded2 06c0 98aa ddbc
00000130: c7c5 c5bd c60e 1a3d 4478 96bf 989d 093f
00000140: c195 87bf 6e22 e03e 0a36 1dbd 191b 0dbb
00000150: f98a a7be d2e2 dc3d 0b6c 453e 567a 11be
00000160: c92a 373d 71d1 353c 0d1c e33e 75ff 233e
00000170: e794 38bf de6c afbf 6b7e 16be d8e6 e3be
00000180: aae8 a5bf 0462 34bc 377b cebe 3e82 32bf
00000190: 9054 babf 4326 9abf 8254 063e e59d 9bbe
000001a0: 0ec3 e0bf 9985 36bf 1ac9 ee3e 62de 41bf
000001b0: 543a f73e 46a0 68bf 1f5c a93e 4890 9ebe
000001c0: df96 563f f851 8dbe 7dfe cdbc d525 9dbb
000001d0: 266c c73c 55eb a8be 2754 eebc b88d 903c
000001e0: b435 97bf 3b84 ae3f badd dbbf 10f3 debd
000001f0: 27c0 543e 0360 b73f c5de d2bd 4d27 2a3f
00000200: cb8e a3be 99fc 72bf 25df 5abe 08f6 7cbe
00000210: 2c23 96be 7bd5 33bf 2885 53be 85c9 cebc
00000220: 68d9 2cbf 8149 6c3e a95b f3be 76dc 83bf
00000230: 57ba 76bf 0a36 ef3e 5d55 9538 a619 c23e
00000240: d66c b13c f441 89bd 0bc2 e0bf e9a6 81bd
00000250: 808f d3bf dfc2 913a 31df 063f a1c7 f5be
00000260: f340 673a 93d4 733d 448c c03e 44fd 7e3f
00000270: 437e 203e 291c 87bc d46c 00be 1afa 863d
00000280: da61 103e ebea ecbe 04bf 4f3f cdc6 563f
00000290: c81f c5bf fe0d 47c0 1c9a fc3e 7a5f a9bf
000002a0: 9c12 06bd 115c 3bbc c21b 7c3e 26d4 8fbd
000002b0: 2859 063f 0dd3 8dbc deb3 3c3f b80e 143c
000002c0: 76b6 c4be 6652 14bf 5d22 11be b3d5 083f
000002d0: 1b1c c73e b6b7 1b3f edc7 d13b 1afa 5abe
000002e0: 86f8 203d aa0d 3b3e b721 60bd 0138 ddbf
000002f0: 1c1e 83be 5e1a 4f3e 0cd1 0a3d c64c b6bd
00000300: 178f abbe 4235 e03e b08c fdbf eb7a fb3e
00000310: ec49 efbc 4bf1 cc3e 8ddd dc3e 9ec2 123f
00000320: bd39 693f b54d c93e 0d32 21bf 388d 083d
00000330: c204 12bc 7614 64bf d51f c6bd 91e6 9c3f
00000340: c891 1c39 a19a e53e 3906 ce3c 7412 fcbf
00000350: ec4a 1f3e c931 0fc0 ea3f 043c 8411 2d3e
00000360: 6b60 b03d 08eb 233d 3c11 383f d03a c73d
00000370: da4f f13e d3bf a9bf 5a97 69bf af47 4a3e
00000380: f0d2 6abe 39ae 05bd 956a 79bf 05c1 0d3f
00000390: b098 123f 7a64 1c3f d0b0 823d e79a 2cbf
000003a0: 792f 963d 707d d43e 1b55 783f f531 7a3e
000003b0: 19b5 39bf 53d0 693e 5a21 86bf 9b0b cebe
000003c0: 16b6 dbbf fe5f 803e e46e 563d cb3e 89be
000003d0: 8dc1 8abe e27e b2be 6bc2 043c 7ba8 a0be
000003e0: eabf 43bf 6cc2 c4be f797 6a3e fcbb c0be
000003f0: 34a8 013d c2da 00bf 586a 55bf 364a 603e

net.4.bias f4 [3]
1.4724822 0.957389 0.9250976
00000000: 4c7a bc3f 7217 753f 32d3 6c3f
