dqn.pth (torch, 76000 bytes, 6 tensors)

net.0.weight f4 [128, 11]
00000000: 301e 11bf b3e5 053f 76fd 013e ee49 823d
00000010: 15af 2e3d dd17 66be 3f3b 05bf 0f9c c4be
00000020: c89d 47be 8ff0 7cbf c79b 00bf f82f 07bf
00000030: d733 81bf e666 ba3f 1056 56be 29fb 8e3e
00000040: 83aa 913e ad7b 0d3e 4892 543e 8926 babb
00000050: 99c5 9abd 1a2b 5e3d 8739 7dbf 1e71 1a3f
00000060: 7f3b 553f c147 133e 1f26 2abf 7964 e4be
00000070: bc6d 5f3e 2725 ecbe b2ed a3be 1764 7bbe
00000080: ff33 c0bd ab9b 513e d97e 0dbf 22bb 6b3e
00000090: 9fbb 4abf 46de e5be a849 a03d 5d76 e9be
000000a0: 6018 203e a52e 92bf a733 893e e697 56bf
000000b0: 0926 09bf d96b 15bf 9146 eabd a5d7 aa3b
000000c0: 73c7 1f3f a3ee 253f 6063 543d 3991 2a3e
000000d0: 18eb b9be 68c0 e9be 600a cfbe a351 153d
000000e0: ea59 953e 7fb6 403e 87b4 11bf 73af bbbe
000000f0: f938 7d3e 2e16 2bbf 381e 733d 2fcd 6cbf
00000100: 17e4 3fbf 7063 9bbe 4abd b63e 288d 2e3e
00000110: dd76 4a3f af54 1e3f 3779 0dbe 4dd9 7dbe
00000120: f70e 6f3e 31a8 80bf 2b07 acbf 6db9 033f
00000130: f4d0 d9bf 87a5 bebe e6cc 363f 40b3 c3bd
00000140: 7191 8bbf ec22 22be 2884 9ebe 0192 08be
00000150: 9e7d 123e 1a4a 37bf fe64 01bf e8cd 86bf
00000160: c639 143e 9519 85bf f537 d83e 864f 38be
00000170: 7fc9 64be 96e0 ccbd d672 363e 8c5d bd3c
00000180: 346d cdbe fd68 a23d f101 57bf a6df 963e
00000190: 5b64 cf3e ce2e e4bd 2cc1 6ebe ff1f 68be
000001a0: 731a cdbe 7bbc 57bf cea0 36bf ed65 35be
000001b0: 8d6f 4fbf 6fc1 b63e 4764 0b3e bd84 33be
000001c0: dcd0 b63e 78cb c6be d4b8 d83c cdc1 29bf
000001d0: f12c 6fbe b22c 7abe f79c 2ebe d76e 2bbe
000001e0: c026 00bf a695 5abe f011 edbc 7662 35be
000001f0: efec 13be 3b20 06bf e210 86bd 94fc 41be
00000200: 1a54 dc3d 5e86 debe 5a4a ee3c bd06 d5bc
00000210: 5258 0f3f 5dd5 1b3f f5c4 133c 3773 46bf
00000220: 4a94 9cbf 9e8b 923d 62e9 183f 8412 3cbf
00000230: 8d97 ea3c a12c 56bf 2452 07bf 58d9 963e
00000240: f68a 8d3e 2b1d 7f3e 9629 31bf 09a0 d3bd
00000250: c657 25bf 47b6 2cbf f573 00bf 1e1c 88be
00000260: 17a4 b7bf 3b9f fd3d f5fd e23e aedf 033f
00000270: e571 4fbf 5413 69be 74c5 dd3d 0e3d e3bd
00000280: 49d7 18bf 01cf 3fbf a574 b6be cc0c 9dbb
00000290: 0141 a4be 6f87 083f a989 08bf 5648 f6bd
000002a0: e152 22be 8a44 103e b2de 88bf f0c3 bdbf
000002b0: b4a4 c4bf b352 a63e d378 38be 9687 40bf
000002c0: baad 973e faf1 983f f2dc 9c3f 03d8 273e
000002d0: f874 8cbf 1a94 89bf 8f6b 8e3d a01f b9be
000002e0: a229 bcbe d402 f23e 3ede 5cbf 1204 923f
000002f0: 85b8 893f 990d 1e3f fa25 4dbf dca6 0abf
00000300: e917 bd3e eb9e 3bbe 1a24 c63e a5f9 75be
00000310: aef6 10bf 872d 583e f78b 47be 4453 a6bd
00000320: 16a3 7abe 8818 6d3d bc98 7b3e f1c4 86be
00000330: 50dc 063e 55e2 00be 8068 243b 0096 55be
00000340: 9010 a3bc 22fa 4a3e 98d9 003f 8bfd 223d
00000350: ab8d d5bd 9470 d43c 0cc3 0fbf d626 d8be
00000360: 328f 1ebf ddda 3bbf 63a8 54be 4226 73bf
00000370: 7f50 173f f3e2 adbc 3316 f63d 90ef 41bd
00000380: 0a27 2c3f a002 40bf 9855 3bbf 7673 a8bf
00000390: 1412 e2bf e341 483f 39ec debe f450 a8bf
000003a0: 0a05 e43d f36c c03e 25f1 15bf eb05 253f
000003b0: 159a b2be fcfa 853e 74eb ddbf 5cdb 513d
000003c0: 9977 debf 039e b03e 4e44 943e 6dff aa3d
000003d0: df15 72be 9f16 b4be cafa 37bf 1835 f4bd
000003e0: 7683 3bbe 6095 8dbd e8a4 303e 5a3d 69bf
000003f0: 212a 15bf ff46 df3e afb1 0a3f f2c8 82bf
-0.5668669 0.5230362 0.12694344 0.06361757 0.04264744 -0.2247004 -0.5204353 -0.38400313
-0.19493783 -0.98804563 -0.502377 -0.5280757 -1.0093945 1.4562652 -0.20931268 0.27925995
0.28450403 0.1381671 0.20758927 -0.0056808633 -0.0755722 0.054240324 -0.98915905 0.60328853
0.8329391 0.1438284 -0.6646442 -0.44607905 0.21819204 -0.46122095 -0.32017285 -0.245499
-0.093849175 0.20469539 -0.5527168 0.23020604 -0.7919254 -0.44896144 0.07826549 -0.45598117
0.15634298 -1.1420485 0.2679722 -0.8382553 -0.5357366 -0.5836769 -0.11439241 0.005213695
0.6241371 0.64817256 0.051852584 0.1665696 -0.36312175 -0.45654607 -0.40437603 0.036454808
0.2917016 0.18819617 -0.5691609 -0.36657295 0.24728765 -0.6683072 0.05935499 -0.92500585
-0.7495741 -0.30349302 0.3569129 0.17046034 0.7908762 0.61847967 -0.13815771 -0.24789925
0.23345552 -1.0051328 -1.3439687 0.5145481 -1.7016892 -0.37235662 0.714064 -0.095556736
-1.090376 -0.15833634 -0.30960202 -0.13336946 0.14305732 -0.71597445 -0.50544727 -1.0531588
0.14475164 -1.0398432 0.42230192 -0.17999086 -0.2234249 -0.10003774 0.17817244 0.023115896
-0.40122378 0.07930181 -0.8398734 0.29467505 0.40506253 -0.1114174 -0.23315877 -0.22668456
-0.40059242 -0.84271973 -0.7133912 -0.17714663 -0.8102959 0.35694453 0.13612472 -0.17531104
0.35706222 -0.3882711 0.02645532 -0.6631134 -0.23356988 -0.24431112 -0.17052065 -0.16741501
-0.5005913 -0.21346149 -0.028939217 -0.17713341 -0.14445852 -0.5239293 -0.06546189 -0.18944007
0.107582286 -0.4346189 0.029088188 -0.02600419 0.5599414 0.6087244 0.009019126 -0.77519554
-1.2232754 0.07155536 0.59731114 -0.7346575 0.028636718 -0.8366185 -0.5285971 0.29462695
0.2764508 0.2491347 -0.6920408 -0.10333259 -0.64587057 -0.67465633 -0.50176936 -0.26583952
-1.4346951 0.123838864 0.4433438 0.51513183 -0.81033164 -0.2276128 0.10828677 -0.1109563
-0.597035 -0.7492524 -0.35635868 -0.0047927853 -0.32080844 0.53331655 -0.5333505 -0.12025516
-0.15851928 0.14088646 -1.0692961 -1.482542 -1.5362763 0.3248497 -0.18014841 -0.7520689
0.2962473 1.1948845 1.2254927 0.16390996 -1.0973196 -1.0748322 0.06954109 -0.3615694
-0.36750513 0.47267783 -0.86276615 1.1407492 1.0759436 0.617395 -0.8013607 -0.5416086
0.36932305 -0.18322341 0.38699418 -0.24021013 -0.56626403 0.21111117 -0.19486986 -0.081213504
-0.24476275 0.057884723 0.24569982 -0.2632213 0.1316998 -0.12586339 0.00250867 -0.20858002
-0.019905359 0.1982198 0.5033202 0.03979258 -0.10427412 0.025932588 -0.5615699 -0.4221713
-0.6193725 -0.73380834 -0.2076736 -0.9498025 0.591072 -0.021226382 0.12015953 -0.047347605
0.6724707 -0.75004005 -0.7317748 -1.3160236 -1.7661767 0.78225535 -0.435396 -1.3149705
0.111337736 0.37583122 -0.5857108 0.64462155 -0.3488318 0.26168048 -1.733748 0.051234588
-1.7380248 0.34495553 0.28958362 0.083495 -0.23641156 -0.3517351 -0.7186705 -0.11924189
-0.18311867 -0.06913257 0.17250407 -0.9110924 -0.5826741 0.43608853 0.54177374 -1.0217574

net.0.bias f4 [128]
00000000: eeda 09bf d7dd 3a3e 6f8a 5fbf 6e7b 4fbf
00000010: 5794 503f 9388 49bf a22c 04bf 4e6a 3dbf
00000020: 284d 6cbf 2b6d 5cbf 936f b6be e87f 34bd
00000030: 1d50 77bf 6a99 38bf 7434 58bf 0f63 9a3c
00000040: 5d44 18bf b6ea 5fbf b698 92be 7bb8 19bf
00000050: 6262 86be fef9 593e b61b 05bf 3b49 12bc
00000060: 7fb5 c2be b5f9 47bf 6169 04bf 66af d1be
00000070: ff5f 67bf ba90 033e 8f32 95be d769 c4be
00000080: d72d e53e 35e7 12bf c6bf 1ebe 40f6 2f3e
00000090: f5a4 22bf 8c7c 0ebf 2be0 f0be 9eb4 4ebd
000000a0: a42b 5fbe 9e1d 87be e14d e73e 9c53 703e
000000b0: 5d08 acbe b61f 283e 55aa d8be 1173 19bf
000000c0: 0fcc 9ebe 3bfc ccbe 3af9 28bf 2dbb 7dbf
000000d0: 170f 08bf 6b64 a7bf 664d 6dbf ceff 77be
000000e0: d7c2 c73e c5a0 d4be 89f3 ec3d 28b0 2ebf
000000f0: c49e 0dbf a518 65bf 2628 043f 5b6b 56be
00000100: dddf f6be 6b07 85be afe7 32bf 5054 29bf
00000110: 9e36 7cbf d2c6 acbe ac36 b33c b1bd 4abe
00000120: d0fc ccbd 6919 a1be b9ae b43e 3b0c 48bf
00000130: 8cfd 13be 2a9b 04bf 10bd a73e 06c7 cdbe
00000140: bd1f 8e3d 178e 7ebe 060e 56bf 6008 a83e
00000150: 4c4c 513f e2b2 76be 5888 98be ae33 45bf
00000160: bd05 d03e 902c 5ebf 42e5 5ebf 9a02 1cbf
00000170: b424 19bf 8027 47bf f4a5 f9be 24a1 80be
00000180: 0cea a3be a1f7 2cbf cc77 53be b3eb e3be
00000190: 35bc 833f b9af 34bf cbfd 10bf 0776 a1be
000001a0: 07bb a23d 154a 13bf 8432 64bf 9f27 f4be
000001b0: b7e5 e6be f1af abbe 0a4c 59be cfe1 35bf
000001c0: cdb2 b8bd 36f0 57bf a11f 06bf 78ed 11bf
000001d0: 5431 cabd eec6 6abf 0e49 01bf 9a65 02bf
000001e0: 5009 f9be 8b65 54be 05d7 0ebf fb2b 1cbf
000001f0: fab3 ebbd c224 1abf aa64 5bbf 58a5 35bf
-0.53849685 0.18248688 -0.8732061 -0.81047714 0.8147635 -0.7872402 -0.51630604 -0.73990333
-0.9230523 -0.8610408 -0.35632 -0.044067293 -0.9660662 -0.7210909 -0.8445504 0.018846063
-0.59479314 -0.87467515 -0.28632134 -0.6004712 -0.26246935 0.2128677 -0.5199541 -0.008928592
-0.38029096 -0.781154 -0.51723295 -0.4095413 -0.90380853 0.12848178 -0.29140136 -0.38362
0.44761536 -0.57384044 -0.15502843 0.1718378 -0.63532954 -0.55658793 -0.47046027 -0.05046522
-0.21793991 -0.26389784 0.45176604 0.23469394 -0.3360013 0.16418347 -0.42317453 -0.599412
-0.3101506 -0.40036187 -0.6600529 -0.9911373 -0.53148025 -1.307752 -0.92696226 -0.24218675
0.39015839 -0.41528907 0.11569888 -0.68237543 -0.5532038 -0.8949073 0.5162376 -0.2093939
-0.4821767 -0.25982222 -0.6988477 -0.66144276 -0.9852084 -0.33745438 0.021876656 -0.19798924
-0.10009158 -0.314647 0.35289553 -0.7814366 -0.14452189 -0.5179926 0.3276143 -0.40190905
0.06939647 -0.2485889 -0.8361515 0.3281889 0.81757045 -0.24091676 -0.29791522 -0.7703198
0.40629378 -0.86786747 -0.8706857 -0.6094147 -0.5982163 -0.7779465 -0.48759425 -0.2512294
-0.320145 -0.6756535 -0.20651168 -0.44515762 1.0291811 -0.7058063 -0.5663726 -0.3153536
0.07945829 -0.57534915 -0.8913958 -0.47686478 -0.45097134 -0.3353267 -0.21220413 -0.7104768
-0.090184785 -0.8435091 -0.5239201 -0.57002974 -0.0987269 -0.9170979 -0.505021 -0.5093628
-0.48639917 -0.2074186 -0.55796844 -0.6100461 -0.11508937 -0.6021234 -0.85700476 -0.7095542

net.2.weight f4 [128, 128]
00000000: ee14 943f 4ce4 57bf 62c3 253e 4877 62be
00000010: 7cfe 79bf 1a85 583e 16ff da3e a55d 8f3f
00000020: 6204 c83e c2ba 75bf 249d 993e c68d 09be
00000030: cc61 8fbe 53cb 1d3f bcc0 be3d 0334 673f
00000040: 88a4 853d d8f4 8dbf 90ee 06bc 7a68 8bbe
00000050: 4ef6 213f 3db3 1ebe d5f9 47bf a61f 9dbf
00000060: 5174 debf 45a6 2bbf 0298 3dbf 9b1a 943e
00000070: 2208 84bf cb94 78bd a0d9 14bf 9798 69bf
00000080: d305 e3be 7efe 38bf d953 b7be e122 4ebe
00000090: 0fac b6bd bfb3 8abf c4ef 033e b704 1fbf
000000a0: 721b 303d ef94 8abe 7ac2 7cbf a265 4cbd
000000b0: 3a61 e23d 5a39 a9bf 5920 9abf 9e0e 16bc
000000c0: 008b 133e 5f44 3d3f 1459 e6be cdc9 2ebe
000000d0: f3b1 26bf 8cb6 33bf aef2 e2be 78f7 13be
000000e0: e51a 50bf 9f78 383e 8aee 2bbf 9baf 3fbf
000000f0: 8ff2 abbe 6dc7 89bf 61af 293f 484e 84be
00000100: 2b54 663f 86f6 51bc 0dd3 2dbe a3fd 523e
00000110: 9022 673d 092d 4ebf ff72 74bd 00c1 993e
00000120: b487 1abe aa56 183e 8761 2abf fba9 d2be
00000130: c691 2f3e 88ca f33d 0897 113e 77c1 09bf
00000140: f5ce 3cbe c067 9a3e a00d c4bf 2ff2 d6bf
00000150: e2f0 a7be 1c3f 983e 9581 5f3f cf8c d8bf
00000160: 1863 aabe f167 323f d576 36bf 9379 d73d
00000170: 05f1 823e b92c b7bd 5806 233e 1744 05bd
00000180: 0b8b 913f 3a76 4ebf aa14 683f daef 74bd
00000190: 85f0 39be d61c b4be d3e7 a63e a164 403e
000001a0: 5934 c8bb 27af c5be fcd3 2cbf 3db7 82be
000001b0: bbb5 293e cd19 01bf edac e1be 5bbc 053f
000001c0: 83cb 023c c77f a9be 0cd7 dbbf dd4d 3bbe
000001d0: 56b5 c53d f2e4 6bbf ab30 27bf 5998 283e
000001e0: 98bf 68bf 2c6c 2cbd e9c2 19be 24c5 833e
000001f0: 6a8e 233e af90 f5bd 122b 80bf 9628 51bd
00000200: 1dac 7bbe 5d1c 21be 6b9a 41bc 4432 e3bf
00000210: 337d aa3e e9ca 45bf 96c4 7cbd 9a06 11c0
00000220: d271 e8be aeae 643f e6cd 103f 1f24 e2be
00000230: ac6b 15bf c713 9ebf 83ff 13bf fc41 3fbe
00000240: 67d2 a9bf bb79 533e 32d6 113d 5e83 cdbe
00000250: 7a71 edbe 8bbf b1bf 527b ec3d 5461 9f3f
00000260: d162 73bd e58e 30bf 3c8f 62bf 0b26 31be
00000270: bb6c 99bd 9ba2 9e3e dd85 833f 6168 77bc
00000280: 1a0f 4abf 6f7d a23e aeba 543f dd23 493f
00000290: 8368 883e 7bc5 083f 9605 40bf c9f2 4fbf
000002a0: deda 97bd 959c 463e 47fb efbe 5b58 0ebf
000002b0: 004e 85be 3c75 673f 3bb0 883f 7a93 013f
000002c0: 8ffa 30be cd8e 68bf 3a2e 42be c2d8 8d3f
000002d0: 6e73 f2bd 3354 4d3d 65a0 153f 679b 903e
000002e0: 7db4 cdbd 7b10 2fbe 2e03 36bf d59c a6bf
000002f0: 13cc dc3e bb29 cdbf c7c8 3ebf 03b7 ec3d
00000300: 95f2 e3bf b6fd 5f3d faef db3e 1483 44be
00000310: a00c c4bf 07e7 353d b306 023e 142d b53c
00000320: 72ec 3cbf c226 eabc 0005 a5bf ebb3 c6bd
00000330: 16af 2dbf 1723 bc3e 622f a9be e45c 073e
00000340: c3b2 40bf 8d82 273f 36b4 5b3e c8d4 23bf
00000350: 35bb 8ebf 3821 9e3b 24e4 193e 2407 853e
00000360: 8f84 37bf 1e1e 913f f497 c4be dbe2 c7be
00000370: 08e1 673e f2e8 3cbf 9bcd 01bf 291b 963d
00000380: 291d 713f 0939 973f 85a1 9bbf d6c2 72be
00000390: d2f5 99bf 08e2 26bd 8e2c 9a3e 99ce 843e
000003a0: 45aa 38be f55d 903e f7a7 e93e b69a 023f
000003b0: 23b5 613f 6f71 12c0 f471 10bf d6e0 873f
000003c0: 1ffb edbe f816 d33d b54b 87bf 402c 80bf
000003d0: 0887 f8bd d5da 5f3f 3e7c abbf 42d9 9dbe
000003e0: 07ed 33bf 6ccb 07bd 15da 243f 5de5 f93d
000003f0: a862 6dbd 3cb0 eb3d 61b2 123f 6fe7 a83e
1.1568887 -0.8433273 0.16187814 -0.22115815 -0.9765394 0.21144524 0.4277274 1.1200453
0.39065844 -0.95988095 0.300027 -0.13432989 -0.280043 0.61638373 0.09314105 0.9031374
0.065255225 -1.1090345 -0.008235589 -0.27228147 0.63266456 -0.15498061 -0.7811559 -1.2275283
-1.7379247 -0.6705058 -0.7406007 0.28926548 -1.0314982 -0.060688775 -0.5814457 -0.9124846
-0.4434038 -0.72263324 -0.35806158 -0.20130493 -0.08919536 -1.0836104 0.12884432 -0.6211657
0.042994924 -0.27066752 -0.9873425 -0.049901612 0.11053701 -1.3220627 -1.2041122 -0.009158758
0.14408493 0.7393245 -0.44989836 -0.17069168 -0.6511528 -0.7020042 -0.44325775 -0.1444987
-0.8129104 0.18014763 -0.67160857 -0.7487733 -0.33583495 -1.0763985 0.6628323 -0.25840974
0.8997218 -0.012815123 -0.1697504 0.20604567 0.056429446 -0.8053747 -0.05967998 0.3003006
-0.15090829 0.1487681 -0.66555065 -0.4114531 0.17145452 0.11903864 0.1421777 -0.5381083
-0.18438323 0.3015728 -1.5316658 -1.6792659 -0.32800967 0.2973565 0.873071 -1.6917971
-0.33278728 0.6968985 -0.71275073 0.10521235 0.25574508 -0.08944077 0.15920389 -0.03253564
1.1370558 -0.8064915 0.9065653 -0.059799053 -0.18158157 -0.3517825 0.32598743 0.18788387
-0.006109756 -0.38610193 -0.6751096 -0.25530425 0.16573231 -0.50429994 -0.44077244 0.5224053
0.007983091 -0.331053 -1.7175002 -0.18291421 0.09653728 -0.9214622 -0.65308636 0.16464366
-0.9091735 -0.04209535 -0.15015759 0.25736344 0.15972295 -0.11990487 -1.0013144 -0.051064096
-0.24577375 -0.15733476 -0.011816601 -1.7749715 0.33298644 -0.7726274 -0.061710916 -2.266028
-0.45399338 0.8932904 0.56564176 -0.44168183 -0.5836742 -1.2349786 -0.57811755 -0.18677515
-1.3267335 0.20651905 0.035604663 -0.40139288 -0.46375638 -1.3886579 0.11546959 1.2451577
-0.05942041 -0.6896804 -0.8849981 -0.17299668 -0.07491442 0.30983433 1.0275227 -0.015100569
-0.78929293 0.31736323 0.8309735 0.7857035 0.26642236 0.5342633 -0.75008523 -0.81229836
-0.074147925 0.19395669 -0.46871397 -0.5560357 -0.26036072 0.9041326 1.0678781 0.50615656
-0.1728308 -0.90842897 -0.18962947 1.1081774 -0.11838423 0.050129127 0.5844787 0.28243563
-0.10044191 -0.1709613 -0.710986 -1.3016611 0.43124446 -1.602836 -0.7452511 0.11558344
-1.7808405 0.054685317 0.42956525 -0.19190627 -1.5316353 0.044409778 0.12697868 0.022116221
-0.73798287 -0.028582934 -1.2892151 -0.097022854 -0.67845285 0.3674552 -0.33043963 0.13219029
-0.7527277 0.6543358 0.21455464 -0.63996553 -1.1150881 0.0048257373 0.15028435 0.2598201
-0.71686643 1.1337316 -0.3839718 -0.39040264 0.22644436 -0.73792946 -0.50704354 0.07329399
0.9418512 1.1814281 -1.2158667 -0.23707137 -1.2028143 -0.040742904 0.30112118 0.25938872
-0.18033703 0.28196684 0.4563596 0.5101732 0.8816702 -2.2881734 -0.5642388 1.061549
-0.46480653 0.10307115 -1.0569979 -1.0013504 -0.1213513 0.87443286 -1.3397291 -0.30829817
-0.7028355 -0.033152983 0.64395267 0.12201951 -0.057955414 0.115082234 0.57303435 0.3298907

net.2.bias f4 [128]
00000000: 80b1 9abe ab9d 32be eb6d fcbd ece0 073e
00000010: 0e60 0b3d 8fcf e0bd b352 46bd be69 3bbe
00000020: 9cdf 24bc 9d8c 05bf 2f7e 1dbe fdab ebbd
00000030: 4550 0cbf 661b 63bf 752c 9dbe f36f a1be
00000040: f9a9 f7bd 090c 473f 8039 41bc f2cd 363f
00000050: dc87 243e ec6d 80be 167b a4be b6d7 0bbf
00000060: c889 a2bd 8caa 0ebe bb54 d0bd 2cb0 03bf
00000070: f49b 43bb ba7a c2be 177f e1bd 8deb 83bd
00000080: b0cf 1b3e e238 b4be f5ca 583e 7935 5bbf
00000090: 2c3f 023d 742b a7be 7d29 933f 0835 dabe
000000a0: d0c6 1e3c f1c1 e7bd 1431 94be 39bb 973e
000000b0: 6148 90bf f67d 08be 82cd cabe 2046 adbe
000000c0: ad7d d33c 3766 593d 7b97 5dbe 556c 03bf
000000d0: 2a80 6ebf 1e84 9abe 5f83 23be a7ae 3d3e
000000e0: a3d3 02bf 0848 42be 296e debe 3e30 7ebe
000000f0: f7e9 0bbd 83a5 71be a290 a0be 972c 82bd
00000100: 4885 69bf 3630 5ebe 262f 9d3f 83aa f9bd
00000110: 5e65 6e3f c445 a3bd 0907 38bd 85aa 6dbe
00000120: cdc0 04be 2746 2bbe f624 a4bd 9f1a 8dbe
00000130: 5b0c f0be 9067 2a3f c38b 8b3f a8a5 f5bd
00000140: c874 0d3d c7c6 963f 7e74 e1be f3ac 62be
00000150: 4e2f afbd f562 63be d3c3 28be d1b8 3bbe
00000160: 4112 bcbe 6261 a2bd 9605 b33d b4ad 8cbd
00000170: 6af6 0cbe 9c47 ddbe 5cbd e2bd d6e9 05bf
00000180: 1b8f ddbd a19a 42bd 8dc8 a8bd b034 60be
00000190: 06ec 34bd 74ca abbd 1e8f 4e3f 33c6 63be
000001a0: 9e32 1c3f 88fb b03f c46a a43f d1b2 223f
000001b0: cd36 4cbf ae6c 06bf 1508 e43e 23d2 39be
000001c0: 98ea 9dbe 3ad1 f5be aa00 a0be 7be4 c8be
000001d0: a621 45bf d23f 12bf 9980 1abf 5394 ddbe
000001e0: 8162 3bbe 0b08 443d 806c d33d 3da6 a5be
000001f0: c9bd 11bf 5e31 a33d 50b6 70bc a12b 95bc
-0.30213547 -0.17442958 -0.12325653 0.13269395 0.03402715 -0.10977089 -0.048418712 -0.18302056
-0.010063078 -0.52167684 -0.15380166 -0.115074135 -0.5480998 -0.8871368 -0.3069798 -0.31530723
-0.120929666 0.7775274 -0.011793494 0.71408 0.16067451 -0.25083864 -0.32125157 -0.54626024
-0.07936436 -0.13932246 -0.10172411 -0.5144069 -0.0029847594 -0.37984258 -0.110105686 -0.06441412
0.15215945 -0.35199648 0.21171172 -0.8562847 0.031798527 -0.3265034 1.1497036 -0.42618585
0.009690955 -0.11316288 -0.28943694 0.29635027 -1.1272088 -0.133293 -0.39609915 -0.33842564
0.025816763 0.053075995 -0.21639816 -0.51337177 -0.9316431 -0.30178922 -0.15968083 0.18523656
-0.5110418 -0.1897279 -0.4344342 -0.2482309 -0.034158673 -0.23598294 -0.31360346 -0.06356161
-0.91218996 -0.21698079 1.2280014 -0.12190726 0.93123424 -0.07972291 -0.044928584 -0.2320958
-0.12964173 -0.1672598 -0.08014862 -0.27559373 -0.46884426 0.66564274 1.0902027 -0.11994487
0.0345352 1.1779412 -0.4403419 -0.22136287 -0.085539445 -0.22205718 -0.16480951 -0.1833222
-0.36732677 -0.079287305 0.087413 -0.06869069 -0.13765875 -0.43218696 -0.11071274 -0.5230993
-0.10818311 -0.047510747 -0.08241377 -0.21895099 -0.044170402 -0.08388224 0.8068713 -0.22243576
0.61014736 1.3826761 1.2845082 0.635541 -0.7977112 -0.5250958 0.44537416 -0.18146567
-0.30843043 -0.4801119 -0.31250507 -0.39236817 -0.7700447 -0.5712863 -0.60352474 -0.43277225
-0.18299295 0.047859233 0.10323429 -0.32353392 -0.56930214 0.079684004 -0.014691904 -0.01820928

net.4.weight f4 [3, 128]
00000000: 45e7 e0be c80f 07c0 8e75 1a3d 12b2 2ebf
00000010: 19b6 fbbf 9719 6ebe 665f 5b3d 95e6 77bf
00000020: d6bc 703b 041e 363f 90c3 61bf 5ed6 31bb
00000030: 3f6c 893f 625d 1c3f 3715 a1bf 0b45 02c0
00000040: a914 f53c d35a 373e edd5 6fbf 2d82 a1bd
00000050: 2844 86bc b7db 443e e03c dabe 9bc4 a6bf
00000060: c721 bf3a a4a0 3b3d 0f72 adbf fa37 db3e
00000070: 3cff 8e3f 5acd 393f 7414 efbe 0aa5 803d
00000080: 7240 613d 58bf fcbe cf33 6fbf d8b3 483f
00000090: 68ba 91bf db0f debe c700 a83e 9eda 00c0
000000a0: a5ac 92bf 2019 b03c b38f 40bf 1a69 d5bd
000000b0: ff1c a43e e004 febe 03ff 01bc 8437 1abf
000000c0: 0164 40bf 9b47 71bf b87c 7abf 6513 77be
000000d0: 95c7 6abf 82e3 ebbd 6adb e1bf bcb0 9dbc
000000e0: 86ef 27bf 6d31 d4bf c93b cabe ad89 91bf
000000f0: 03fa 7cbf c6eb 8dbe ff2a babd 8b5a 86bd
00000100: 60e1 e23d 8493 4d3c b5fc f93e 71c1 d3be
00000110: fcbc 7ebd 30b6 f83b 15df d4ba e4eb 8a3f
00000120: 23a3 43bd 2d5b 8e3f a0d0 293b 6df4 e1be
00000130: 8b78 c2bf 76bf acbe 6e0f 25c0 6167 5cbc
00000140: b3fe 96bf 5e37 6e3e 637f ea3e 1383 863c
00000150: 5f00 1e3d 839a dbbe 7fdf 903b f045 abbc
00000160: 0ef8 adbf 942c 8e3b d0bd b8bd 27e3 483c
00000170: fd3c f0be 9862 e8be e077 7d3d c456 89bf
00000180: c0df 6ebf bf4a 05bd 583b e0bc 88f7 8bbf
00000190: a472 8e3d a5f4 ee3d 2b9c 0abe ac4b bb3c
000001a0: bcbe 7cbc 5771 053f 30ec c23e b301 36be
000001b0: c4de 4e3f 821a 34bc e3b3 4abf 66ec e9bc
000001c0: 3cbc e03e 27cb 05be c97f edbe e14b 003f
000001d0: 4a02 853f 2975 39c0 43f4 a6be 2503 2cbf
000001e0: 0868 633b 5a06 97bc 54e0 a8bf 5986 e7be
000001f0: 9129 29be be1a fbbd 3028 84bf eece 60bf
00000200: 4a88 bdbf 3cf9 803e b19d 0d3a 6764 d93e
00000210: 1f3c d53e 79b1 b73e 6891 e23c a1fd 75bd
00000220: 9488 1d3d d5f4 8d3e 9fd9 86bf 4915 a93d
00000230: 8ca8 9abf 36ec 1abf 339b fa3e 48cc 0dbe
00000240: 1047 233c 439c 54bf 3f9e db3e 48ad 2dc0
00000250: 05fe 28c0 dcc9 dfbe da29 bdbd b03a c23e
00000260: 7270 683b 500f 9e3d b7c8 e3be 6325 64bf
00000270: 09d7 2dbf 7efc f1bd 57ea 58bd 4c34 cb3c
00000280: 7a29 13bf 8c7e d7be 42a1 78be a1aa cabe
00000290: 96e9 303e 3323 a73d ef35 753e fbb9 4fbf
000002a0: f5b8 bbbe a519 6dbd 0bc1 58be 9b10 c1bb
000002b0: 5af6 0f3d e0e4 52be 8fe8 b8be 24e9 00bf
000002c0: 36cd 8abe 9f43 11bf d6aa 7c3d 6e5d 2dbf
000002d0: 7cff 89bd e347 273e 0d1c c6be 5d16 eebe
000002e0: c06a 013e f8f8 cd3e 7032 dabe 8638 883f
000002f0: 2921 e33e 7c9e 2fbe e1d0 b1be 0852 2a3d
00000300: ef4a 393f c3d5 47bc 7859 e13e 85a6 d0be
00000310: 86aa ad3e ba8a a7bd 4c60 80bd 3f50 5fbe
00000320: 8c02 d83b 4c73 18bf 271d aa3b 2dcc 0bbf
00000330: d113 b63f 28f4 c33e be24 c1be c0ec c63c
00000340: 7846 273f 5128 f83b e2b1 a03e 85b9 01bf
00000350: 765c 32bd d1c2 cebe 2570 aebd 00fb 8fbe
00000360: 67e3 25be c949 173d 86f7 88bf 803b 313c
00000370: bec7 7ebe 46a4 b7be 359d 863a 4779 97bf
00000380: f559 ac3e 5238 bbbb 5053 c93b 9a02 40be
00000390: 77ca 573d dd4e 183e a91c 1e3c 7337 9cbf
000003a0: 0cb0 4e3f bbcb 243d 3d6a f63e d9ae 9cbf
000003b0: 5675 a4be 329d 0cc0 079c 903d 8f89 f2bc
000003c0: 9bcd 72bf 1dcc f2be 88bd bb3d 9f32 3ebf
000003d0: 36c3 bcbd a0f8 20bf 05cc b8be 10ac 303f
000003e0: f009 2d3d 1e67 6bbf 504d c03e 8392 093f
000003f0: bb36 16bf 9391 cabf 71ce 74bf 72ff d6be
-0.43926445 -2.1103382 0.037709765 -0.68240464 -1.9664947 -0.23251949 0.053557776 -0.96836215
0.0036733649 0.7113955 -0.8818903 -0.002713583 1.0736159 0.6107999 -1.2584599 -2.035464
0.029917078 0.1790574 -0.936858 -0.07886157 -0.016389921 0.1922444 -0.4262457 -1.3028749
0.001458221 0.045807496 -1.3550433 0.42816144 1.1171641 0.72578967 -0.46695292 0.06281479
0.0549931 -0.49364734 -0.9343843 0.7839942 -1.1385012 -0.43371472 0.32813093 -2.0133433
-1.1458937 0.021496356 -0.7521927 -0.10420437 0.32053372 -0.49613094 -0.007934335 -0.6024096
-0.75152594 -0.94249886 -0.97846556 -0.24128492 -0.9171079 -0.11518003 -1.7645085 -0.019249313
-0.6559986 -1.6577584 -0.39498737 -1.137014 -0.9881899 -0.27718943 -0.09090232 -0.065602385
0.11078143 0.0125473775 0.48825613 -0.41358522 -0.06219195 0.007590078 -0.00162408 1.0853238
-0.047763 1.1121575 0.0025911704 -0.44131795 -1.5193037 -0.33739823 -2.5790668 -0.013452382
-1.1796478 0.23263308 0.45800313 0.016419923 0.038574573 -0.4289132 0.004421174 -0.020907372
-1.3591325 0.00433881 -0.09020579 0.012261189 -0.4692153 -0.4538772 0.0618819 -1.0729604
-0.93310165 -0.032541987 -0.027372047 -1.0934916 0.0695546 0.11667756 -0.13536136 0.022863232
-0.015426334 0.5212607 0.38070822 -0.17774086 0.80808663 -0.010992648 -0.79180735 -0.028555106
0.4389361 -0.13065778 -0.46386555 0.5011578 1.0391324 -2.897776 -0.32608232 -0.671923
0.0034699459 -0.018435646 -1.319346 -0.45219687 -0.16519763 -0.1226096 -1.0324764 -0.8781575
-1.4807217 0.2519015 0.0005402221 0.42459413 0.4164743 0.35877588 0.027657226 -0.060056332
0.03846033 0.27725855 -1.0535163 0.08256013 -1.2082686 -0.6051668 0.48946533 -0.13847458
0.009965673 -0.83050936 0.4289417 -2.7137012 -2.6405041 -0.43708694 -0.09236498 0.379354
0.0035467413 0.077177644 -0.4448907 -0.8911955 -0.6790624 -0.11815737 -0.05295786 0.02480521
-0.57485163 -0.42088735 -0.24280265 -0.39583305 0.17276606 0.081610106 0.23946355 -0.8114316
-0.3666455 -0.057885785 -0.2116739 -0.005891872 0.03514705 -0.20595121 -0.36114928 -0.50355744
-0.2710969 -0.56743807 0.06168636 -0.6772069 -0.06738183 0.16336016 -0.38693276 -0.46501437
0.12638378 0.4022901 -0.42616606 1.064225 0.44361237 -0.171503 -0.34729674 0.041582137
0.72379965 -0.012196961 0.44013572 -0.40752044 0.33919162 -0.08180757 -0.06268367 -0.21807955
0.0065921005 -0.5955093 0.0051914635 -0.5460842 1.4224797 0.38272214 -0.37723345 0.024282813
0.653419 0.0075731655 0.31385714 -0.50673705 -0.04354521 -0.40383008 -0.085174836 -0.28121185
-0.16200028 0.0369356 -1.0700538 0.010817409 -0.24880883 -0.35867518 0.001027024 -1.1833886
0.33662382 -0.005713501 0.006143965 -0.18750992 0.05268332 0.14873834 0.009650388 -1.2204422
0.80737376 0.040233355 0.48127928 -1.2240859 -0.3212077 -2.1970944 0.0706101 -0.029606609
-0.9484498 -0.4742135 0.091670096 -0.7429599 -0.09216921 -0.6287937 -0.36093155 0.69012547
0.042245805 -0.9195422 0.37558985 0.53739184 -0.5867726 -1.5825676 -0.95627505 -0.41991764

net.4.bias f4 [3]
00000000: 010c c83f aefa 923f 0ec3 873f
1.5628663 1.1482751 1.0606401
